checkpoint/2016.10b_AWN_model.pkl (torch, 506194 bytes, 24 tensors)

conv1.1.weight f4 [64, 1, 2, 7]
00000000: 1792 b03d 1567 e83e a1df 873d c111 afbc
00000010: 5f2e 43bf 2771 02be 31ff 023f 88e9 583e
00000020: 366c 333d b3ad b4bc 3e56 bd3e aab5 8abe
00000030: 89a9 4c3e dcd2 103e bb53 da3e 9a6b 50bd
00000040: ac80 e8bd 192a 9a3e 2828 a93d f2ab 13bf
00000050: 254c d23d e4ab 38be 352d d73d 41a1 94bc
00000060: 9e1c 0fbe 7686 0ebf 2a83 9cbe 644e 253f
00000070: 8b63 dcbe 7211 8bbe 9b90 163d 3060 a7bd
00000080: 3206 3f3e 065f a3bd 40e4 103e 48dd ffbe
00000090: 55bd c1be 20d2 6bbe 41bc 3c3e 0c54 5a3e
000000a0: 82cd a73e 397c 4f3f 7016 1e3f cc1b a93e
000000b0: bb40 4ebe 526f e7be c28f 513d d058 0cbe
000000c0: 6156 ed3e c9c6 09be 7d95 e6be 2f98 9e3c
000000d0: 5aa8 88bd 57b4 f43d f420 913e 560f d93e
000000e0: 41c8 92be 01dd 663b fe53 523e 3544 483e
000000f0: 983e f53d 21e5 de3e bcc7 953e 991a d73e
00000100: 5803 de3e cf21 a83e 556e 723e 163e 463e
00000110: c04c 99be 32d1 24bf 91e0 093f 0dc1 973e
00000120: 3290 f23c a72c c43c 5d1d 90bd 08cf a1be
00000130: 9da0 f2be 382f 85be 49c8 cabe 96ff 0d3d
00000140: 3139 c73e 8f7a f03e 57d1 9f3e f2b6 903e
00000150: 789c 533f 60f0 833c 7be9 81be 5087 b3bd
00000160: c9c7 213e 51c9 c2be 89b8 4dbf 8704 b7be
00000170: 8bf5 11be 7eac afbd a0ae 0bbd 73c1 e6bd
00000180: 30b3 883d 4576 6abd deb1 673f 85ba 1b3f
00000190: cba5 3e3f 0ad8 303f 7db5 613e ab78 d03e
000001a0: 4c18 863e 954d 6fbc 38d6 0c3d 118d 0c3e
000001b0: 90fb ba3d 476c 17be 8f05 17bd a077 333e
000001c0: 6e52 e03e 12b2 123e eb77 c6bd 552a 58be
000001d0: 091e f4be c393 c3be c7c8 c43e 131f 34bf
000001e0: a020 4bbe dad4 90be 22eb a43e 156e f13d
000001f0: 0889 3a3d 2281 81be b376 4b3f 4eaf a83e
00000200: 1c60 603e 66ff 213e 593f f03d bf02 74bd
00000210: 02b4 94be 3cfa f53e 55d9 c73d 1bef 16bd
00000220: 3156 e8bd d137 d5be 40d6 a3bd 7c1d 26bf
00000230: c5d7 bf3d 60e0 2d3e 0a44 a2bd c243 28bf
00000240: 8736 c03e f109 5a3e b1e7 86bd ff48 c1be
00000250: b363 5f3e 964c 483c da9b df3e 1e07 86be
00000260: 0d7d c33e df3e c1be f29f 093f 429e 2e3e
00000270: 2276 183d 5564 7c3e c79b dfbc c3b2 50bd
00000280: 8e25 17bf 653c cfbe 93e5 07be e846 86be
00000290: 7fc6 2cbd 1bf1 953e dcc0 b53e dd6d e33e
000002a0: 3d0c fb3d 7026 8b3e 164b 4d3e cd95 f13d
000002b0: ff16 c3bb 35e3 90bc d6da e4be d874 84bf
000002c0: 987c 94bf e6e9 06bf 65fa 7fbe c769 4dbe
000002d0: d68f 133d fd65 38be 4eb6 a23e bb24 143d
000002e0: 9ef7 cd3e c9e1 57be 3c0c a6be 660a 663e
000002f0: dc37 b6be 8e29 223e 65a9 963e ebf7 31be
00000300: 02ce a8bd 7f90 23bf 98a8 11bf c290 e73e
00000310: 0192 0bbf 4ccb 41be 40c0 843e ea78 c13e
00000320: 9629 f53e 3e56 76be eefc b3bd 67af 8d3e
00000330: 5ba1 25be fd2b 043e 4c40 853e 7cf6 9fbe
00000340: b934 25bf 7070 acbe bbb0 dcbe 2864 34be
00000350: 4a8a 633b 1697 bf3c c18d 15be 1ddd 7d3e
00000360: f2b6 8d3f 7ce9 8a3e 3194 393e 3cd9 2d3e
00000370: b8b6 56bd 7712 f93c 2b49 233e 083d e53c
00000380: 3de0 f73e ed70 7c3e 718c 56bd 77d8 d8bd
00000390: f014 0bbe 34c4 6fbe e14d 1abf 7e61 233f
000003a0: 209c 8e3e 10bc a7be e680 34be 4c04 3dbe
000003b0: d2e0 bdbc ebdf c23e bd64 31bf 666b e2be
000003c0: d3d5 75bd 3fb6 acbe bc74 32bc 1e27 973e
000003d0: 94eb c83e 690b 3abe 2cb1 06be 9e40 4e3d
000003e0: c358 c33e 4206 59be 420f 3f3e 22ae 393f
000003f0: c3db b23d 15c4 fcbe 6452 d1be 9a54 f0bd
0.086216144 0.45391145 0.06634451 -0.02137077 -0.7624263 -0.12738477 0.5117064 0.21182835
0.04380437 -0.022055482 0.3697986 -0.27091724 0.19986548 0.14142936 0.42642006 -0.050883867
-0.11352667 0.30110243 0.08259612 -0.5768424 0.1026843 -0.18034321 0.105066694 -0.018143298
-0.1397576 -0.5567392 -0.3056882 0.6457274 -0.43044695 -0.27161747 0.036759 -0.08172643
0.18654707 -0.07977109 0.1414957 -0.49973512 -0.3783976 -0.23029375 0.18431188 0.21321124
0.32773978 0.81048924 0.61752987 0.3302902 -0.2014188 -0.45202118 0.05116249 -0.13705754
0.46354964 -0.13454737 -0.45035926 0.019359676 -0.066727355 0.119484596 0.28345454 0.42394513
-0.28668407 0.0035226943 0.20539853 0.19557269 0.119748294 0.43534186 0.29253948 0.4201248
0.43361926 0.32838294 0.23674901 0.19359621 -0.29941368 -0.64381707 0.53858286 0.29639474
0.029609773 0.023947073 -0.070368506 -0.31603265 -0.47388163 -0.26012588 -0.3960593 0.034667574
0.3891082 0.46968505 0.312144 0.28264576 0.8266063 0.01610583 -0.25373444 -0.08766043
0.15798868 -0.38044217 -0.80359703 -0.35745642 -0.14253823 -0.08577822 -0.034102082 -0.11267366
0.06674802 -0.057241697 0.9050578 0.6083148 0.7447173 0.6907965 0.22041889 0.40717062
0.26190412 -0.014605899 0.034383982 0.13725688 0.09130013 -0.14787398 -0.036870535 0.17526102
0.4381289 0.14325741 -0.09690841 -0.21109898 -0.47679165 -0.3819867 0.3843443 -0.70359915
-0.19836664 -0.28287393 0.32210642 0.117885746 0.04554084 -0.25293833 0.79477996 0.32946247
0.21911663 0.15820083 0.117308326 -0.05957293 -0.29043585 0.48042476 0.0975825 -0.036849122
-0.11344565 -0.41644147 -0.07999849 -0.6488874 0.09367327 0.16980124 -0.07923134 -0.6572839
0.375416 0.21292855 -0.065871604 -0.37751004 0.21815376 0.012225291 0.43673593 -0.26177305
0.38181344 -0.3774328 0.5375968 0.17052558 0.037222035 0.24647649 -0.02729596 -0.05095173
-0.5904168 -0.40475765 -0.1327117 -0.26225972 -0.042181488 0.2928551 0.35498703 0.44419757
0.12258194 0.27177763 0.20048174 0.1179615 -0.005953669 -0.017686466 -0.4469821 -1.0348158
-1.1600523 -0.5270065 -0.24997862 -0.20059882 0.036025845 -0.18007655 0.31779712 0.03616784
0.4022798 -0.21082224 -0.3243121 0.22464904 -0.35589492 0.15836164 0.29426113 -0.1737973
-0.08242418 -0.6389236 -0.5689788 0.4522763 -0.5451966 -0.18925208 0.25927925 0.37787563
0.4788329 -0.24056336 -0.08788477 0.27672884 -0.16174833 0.12907405 0.26025617 -0.3124274
-0.64533573 -0.33679533 -0.43103585 -0.17616332 0.0034719878 0.023387473 -0.14604856 0.2479138
1.1071455 0.2713126 0.18122937 0.169774 -0.052420348 0.030404313 0.1594588 0.027983204
0.48413268 0.24652453 -0.05238003 -0.105881624 -0.13582206 -0.2341469 -0.60275084 0.63820636
0.2785349 -0.32760668 -0.17627296 -0.1845867 -0.023178492 0.3806146 -0.6929434 -0.44222564
-0.06001837 -0.33732793 -0.010892089 0.29522032 0.39242232 -0.18168415 -0.13153523 0.050354593
0.38153657 -0.21193793 0.18658164 0.7253133 0.087333225 -0.4936835 -0.40883172 -0.117348865

conv1.2.weight f4 [64]
00000000: baae 963f fb16 7d3f 54b9 923f 4903 893f
00000010: 078b 933f c40b 773f 517c a13f d7b1 4f3f
00000020: ea16 553f 422d 9e3f ecfb 8b3f 10a1 7b3f
00000030: f6d5 6b3f 05f6 823f b4da 8a3f f1db 953f
00000040: 03e9 983f 16b3 8e3f f86d 753f 10d8 8d3f
00000050: 9edc 903f da8c 7f3f 5d46 923f 4420 7b3f
00000060: bc86 863f 03a4 833f 48e1 4d3f 5199 863f
00000070: e4e1 633f b664 a23f 434a 853f 17d5 893f
00000080: cb87 303f d8c0 8b3f fda6 9c3f 1d84 803f
00000090: e9b7 7e3f 4d3b 8f3f 8b38 7f3f ac53 8f3f
000000a0: 5189 5b3f b589 823f 5966 a43f 57c1 7c3f
000000b0: c9ca 9f3f 150c 273f 57b2 7f3f e8f3 b63f
000000c0: acad 743f 77be 523f f189 5f3f 1d35 b53f
000000d0: 9a5a 683f 0581 7e3f a33a 863f 38f0 6d3f
000000e0: ac59 533f 4138 4b3f 0e5f 783f ccca 4b3f
000000f0: 6c7a 433f 7451 9b3f 17c8 913f a4ba 723f
1.1772072 0.9886319 1.1462808 1.0704128 1.1526803 0.9650233 1.2616063 0.8113074
0.8323809 1.2357562 1.0936255 0.98292637 0.92123353 1.0231329 1.0847993 1.1707746
1.194611 1.1148403 0.95870924 1.1081562 1.1317327 0.998243 1.1427723 0.9809611
1.0509868 1.0284427 0.80421877 1.0515538 0.89016557 1.2686985 1.0413288 1.0768155
0.68957204 1.0918226 1.2238461 1.0040318 0.99499375 1.1189972 0.9969565 1.119741
0.85756403 1.0198275 1.2843734 0.98732513 1.248376 0.6525281 0.998815 1.4293184
0.955775 0.82321876 0.87319857 1.4156834 0.90763247 0.9941562 1.0486645 0.9294467
0.82558703 0.7938271 0.9702004 0.7960632 0.76358676 1.2134233 1.1389188 0.9481604

conv1.2.bias f4 [64]
00000000: 44d0 1dbf 4388 3fbe fc11 07be 3bae 19bf
00000010: f014 c7be 1448 05bf 56e5 96be 90b2 613d
00000020: 6bd9 a2bd 120c 4cbe 602d 54be af1b 63be
00000030: 8e9c 213d ce95 3dbe 3c62 23bf b01f cdbe
00000040: a966 d9be e625 ffbe d769 1abf 799c 2cbe
00000050: 99a3 a5be 3ad8 10bf 1299 7bbe ca84 55be
00000060: fa98 38bf c544 04bc 5ccc cebe 7e67 2dbe
00000070: f668 9bbe 1584 9fbd 5a50 30bd 7504 113e
00000080: 346e 173e 6a1d c8be fffd 7abe a9e2 31bf
00000090: 654c e4be a10f 8fbe 2dfd c7be 4030 20be
000000a0: b4a4 0ebf 5509 91be c606 a7bd 5935 1cbf
000000b0: e0b1 03be b0ef 02be 584c 0dbe 6d9e 9abe
000000c0: bcd4 25bf e69b acbd 9313 2fbe 9316 d5bc
000000d0: 32a5 9ebd 8e34 6cbe 2545 d5be 003d 283e
000000e0: 64ca 763e 26a2 98be 3a4c 1cbf b1c2 34be
000000f0: 8b2f 7fbe d534 afbe bcd1 99bd 01ff 24bf
-0.61645913 -0.18704323 -0.13190454 -0.6003148 -0.38883162 -0.5206311 -0.29471844 0.05510193
-0.079516254 -0.1992648 -0.20720434 -0.22178529 0.039455943 -0.18514177 -0.6382177 -0.40063238
-0.42461136 -0.49833602 -0.6031775 -0.16856565 -0.32351378 -0.56579936 -0.2457011 -0.20851436
-0.72108424 -0.008073037 -0.4039029 -0.1693401 -0.30353516 -0.077888645 -0.04304538 0.14161856
0.14788133 -0.3908494 -0.24510954 -0.6948648 -0.44589534 -0.2794161 -0.39060345 -0.15643406
-0.5572007 -0.28327432 -0.08155589 -0.610189 -0.12860823 -0.12786746 -0.13798654 -0.30198994
-0.6477773 -0.08428173 -0.1709731 -0.02601174 -0.07746352 -0.23066923 -0.41654316 0.1642952
0.24100643 -0.2981121 -0.6105381 -0.17652394 -0.2492048 -0.34219995 -0.07510707 -0.64451605

conv1.2.running_mean f4 [64]
00000000: 6793 f3b9 6263 b339 72d3 b4b9 bdfd b2b8
00000010: 8be0 d5b9 9807 1cba 122c f939 a234 1039
00000020: ae94 2b3a 94c3 213a 7192 e3b7 64a3 1cb9
00000030: 8b61 1c3b 3974 d939 3e71 143a 36a5 06ba
00000040: cd8f e5b9 9386 2bba 564c e3b9 dc1b 0eb9
00000050: 9bd8 583a f6b4 d039 c8cf 80ba 34fb 743a
00000060: a81a 343a f22b 2dbb 9484 0a3a bf76 03bb
00000070: 4204 4bba 25bb 3839 e5b6 07bb 8b27 5a39
00000080: 7bec 2c3b 005d 5e39 f49f 5239 9e41 05ba
00000090: 6e76 0b39 c364 a639 fac2 fbb9 46aa ee38
000000a0: c1f2 bc39 bc72 63b9 7813 3cb8 5813 3cba
000000b0: 74d0 adb8 d775 9c3a b6ce d2b9 f267 c538
000000c0: 7058 17b9 3142 9c3a 3ee5 16b8 6429 28b6
000000d0: a94a a43a 0980 a8ba 158c 49ba dd7b e839
000000e0: 180e 243b 24a0 79ba 68f4 8539 19ad 1eba
000000f0: 6711 08b9 9db2 d339 721e 0439 6639 013a
-0.00046458395 0.00034215586 -0.00034489814 -8.534964e-05 -0.00040793823 -0.00059520593 0.00047525816 0.00013752517
0.00065452873 0.0006170806 -2.71287e-05 -0.00014938187 0.002386185 0.00041476058 0.00056626264 -0.00051363127
-0.00043785424 -0.00065431854 -0.0004335369 -0.00013552554 0.0008272023 0.00039807678 -0.0009827549 0.00093452935
0.0006870427 -0.0026423899 0.0005284038 -0.0020059792 -0.000774447 0.00017617324 -0.002070838 0.00020804831
0.002638607 0.00021206215 0.00020086748 -0.0005083325 0.00013300191 0.0003173706 -0.0004801972 0.0001138044
0.0003603902 -0.00021691149 -4.4840825e-05 -0.00071745133 -8.28811e-05 0.0011936974 -0.00040208333 9.413053e-05
-0.00014433428 0.0011921582 -3.5976285e-05 -2.5058043e-06 0.0012534457 -0.001285554 -0.00076884154 0.00044342774
0.0025032815 -0.0009522459 0.00025549834 -0.0006053015 -0.00012976454 0.00040378133 0.00012599843 0.00049295125

conv1.2.running_var f4 [64]
00000000: 9cbb 0638 7539 0938 ec70 6a38 29ad 1f38
00000010: 2be7 8038 f2d6 8338 8b7e 5d38 4313 8539
00000020: 13c2 3b38 f715 a138 8426 c537 19d2 4838
00000030: 75d4 8f39 63c5 2438 ccd6 4b38 548b 6138
00000040: 3f40 3b38 5c96 8c38 28b0 4a38 53f6 6238
00000050: 8b8f bd38 68b7 1338 0a6d a438 e75b 8638
00000060: fe7f 4c38 e9e5 a239 02ba 7c38 3b42 3639
00000070: ca31 0139 62a7 6f38 fd50 4839 7ac7 7d39
00000080: 3038 9839 e2ca 8838 07db df37 73ae 2c38
00000090: e2a9 4238 29ef 7a38 ce71 8438 82fb d637
000000a0: b706 1438 316c 3238 e8ab f337 f29e 3838
000000b0: f3d3 cf37 1ea9 0d39 0d8d 2a39 4b1a a138
000000c0: 2127 0f38 bd19 ff38 0381 5b38 213c 0038
000000d0: 00bc 3539 af31 2c39 8ce6 b038 495d 7e39
000000e0: 5627 9439 fc55 9f38 5ff6 0838 e193 b538
000000f0: 1bce c337 05b3 7e38 a523 7538 f5f7 3b38
3.2122814e-05 3.2716856e-05 5.5895114e-05 3.8069822e-05 6.146574e-05 6.2866035e-05 5.280836e-05 0.00025382088
4.476502e-05 7.6811695e-05 2.3502165e-05 4.7879385e-05 0.00027433378 3.9284478e-05 4.8599017e-05 5.377394e-05
4.4644108e-05 6.703727e-05 4.832461e-05 5.4112006e-05 9.038959e-05 3.521834e-05 7.8404395e-05 6.406736e-05
4.8756592e-05 0.00031070344 6.0254715e-05 0.00017381545 0.00012320947 5.7137928e-05 0.00019103657 0.00024202271
0.00029033562 6.522775e-05 2.6685664e-05 4.1170464e-05 4.641142e-05 5.982738e-05 6.315448e-05 2.5627905e-05
3.5292203e-05 4.2539268e-05 2.9047907e-05 4.4017048e-05 2.477502e-05 0.00013509809 0.00016265009 7.681976e-05
3.41303e-05 0.00012164142 5.233382e-05 3.0573578e-05 0.0001733154 0.00016421707 8.435277e-05 0.00024258079
0.00028258067 7.597727e-05 3.2654378e-05 8.658297e-05 2.3341787e-05 6.0725044e-05 5.844575e-05 4.4815202e-05

conv2.0.weight f4 [64, 64, 5]
00000000: 93ac e7be 07a4 cabe 552d 5c3e 9751 9dbe
00000010: 980e 1abf 666f acbd 382a a4bb e5d7 703e
00000020: 2e60 4b3e 528a 343f aa50 073e 6f34 febc
00000030: cdc8 93bd b437 79be 5c82 93be b6b4 91be
00000040: 7807 b1be 3957 98be 2037 02bc 15bb 4cbf
00000050: 9df0 3abf 28c9 ffbe e4b8 debe 39bb 2dbf
00000060: 890b e1be 60ef 053e 063f db3d 9d00 e43d
00000070: 0ed9 233e 96b4 86be 7b89 603e 824d b3bd
00000080: 983d 72bd 661a 823e 901c 6d3e bb03 95bf
00000090: d904 85bf 5ca7 efbe 6fb5 b7be 5617 11bf
000000a0: 6a7e a83d 7e50 0f3e 0788 653e 4771 833e
000000b0: baf7 e13e 8b4b 1bbf 333d d1be ccf4 aa3d
000000c0: 4ee1 d13d 3436 883e b01b 5c3e 7a8c bc3e
000000d0: 30f3 f33c 8f9b bc3e 1d7e 4a3e 1015 99be
000000e0: b64c 9fbe 4dfe 7dbe 4c0d ccbe c566 a3be
000000f0: 8e74 2a3d dca2 023d 4210 b43c 188f 743e
00000100: 75b8 353e 69cd 3ebc a9b2 25bd 452d 803e
00000110: 4cdc 403f 8cce 233e 784b 023f d801 013e
00000120: 9492 973e c4b6 d1bb a498 f03c 2d55 bebe
00000130: 003e 01bf 8130 31bf 9b42 3abf 5285 3dbf
00000140: abfc 133e 6fa4 153e 5ca2 ba3d 3637 90bd
00000150: 1841 9b3c ff05 033e bfb4 9abd c572 1d3d
00000160: 1baa 0dbe fdfd 82be 9714 fe3c 4609 243c
00000170: 04cc f23d 3226 c6bd 51c9 bdba c8d7 a83b
00000180: 0f88 a5be 9b29 203e 4369 adbe 4018 21bf
00000190: f50f 893e 7934 e33e 80e7 623c 1b82 08be
000001a0: 6760 83be 3475 19be b8c5 e5bd 8a95 abbd
000001b0: ff60 053f 29d4 8fbe 90da 1c3e fb97 03be
000001c0: 829e 143e df3c 88be 3e89 acbe 5ed1 0dbe
000001d0: a2fd 393e a6a3 163f c77a ef3e 4ef8 ed3e
000001e0: aba9 9e3e ccc3 163f 06b5 733e 8149 053e
000001f0: 76f8 5bbe e7f3 45be 0d2a 1d3b 109d 913d
00000200: 8626 2e3e 3e46 e73d e789 96bd ee51 983d
00000210: 277e f53c 8349 773e 3fe7 a13e c7c7 393d
00000220: 2cec 203e f440 753e 9d65 513e 642a 44bd
00000230: ce6d 6bbf 1bcc 29bf 44c2 92bc 11fe cfbe
00000240: 231b b7be b553 c0be 7253 a8be b827 583d
00000250: 4dd5 a0bd e509 0dbe 7077 acbd 761b 2a3c
00000260: af4b 723e 549a 2d3e 99f7 71bc 565f 8d3d
00000270: a410 8e3e 0019 8a3e 60ac a73e 821b 623e
00000280: 63a6 b83b 7549 473d ee6d 413e c606 413e
00000290: 2c7c bf3d 4556 66bd 8eed 39bf 93df b5be
000002a0: b4a3 29bf 99d0 0cbf 667b 343e 987b 463e
000002b0: 59d5 123f d3c2 863e a016 9bbd 6456 593e
000002c0: 7ab1 0b3f 6fa2 f23d c126 13be bb99 563d
000002d0: 2536 e23d 6f3b 1e3e 910c 793e e916 a13e
000002e0: e6c7 673e 5e37 383e a0be 233e d8f3 d33d
000002f0: 1d77 a0bd 8a60 883d aca6 e03c f80a 0fbe
00000300: 5ba6 283e ce56 e03d ead8 443e e29b 393e
00000310: 82fb 163f 2d8d babc 0f63 2e3f a82a c53e
00000320: 9599 fbbe 29ef 6dbf b968 1fbe 392e 72be
00000330: 056c 95be 87bd b13c 2e94 683e f350 93bd
00000340: b534 c63e 6d88 b13e 6fc9 963d 8265 bebe
00000350: 5647 583e 887e de3e f03f 423e 75e8 e5bc
00000360: 9061 143f d110 d43e cf93 f63e ff58 473d
00000370: c173 ca3e eea9 c13e b10e 4b3e 941e b03d
00000380: ddc6 603e 6691 bebd 2d69 7ebe 30a4 a93e
00000390: 4f5d f03e 5b06 c23e 9cea 62bd 674c 7f3c
000003a0: fabf 153e c26e d13d 28d2 3a3e 9a88 3ebd
000003b0: f491 d9bd c570 3e3d b4ec 0fbd 1498 a4bd
000003c0: dd3d 24bf 27a9 a9be d8d8 93bd 3e99 1bbe
000003d0: f3d3 24be 23d6 303e 5a0d b0bd 9ffd 5f3d
000003e0: 461b ff3d 7231 88bc 4d31 c13d dc59 033e
000003f0: 9980 a23d 1957 993d 86db 023e 38e4 8d3e
-0.4524885 -0.39578268 0.21501668 -0.3072631 -0.6017852 -0.08419685 -0.0050099157 0.23519857
0.19860908 0.7052356 0.13214365 -0.031030862 -0.07216034 -0.24337655 -0.28810394 -0.28458184
-0.3457601 -0.29754046 -0.007947713 -0.79972965 -0.73023397 -0.49958158 -0.43500435 -0.67863804
-0.43954113 0.13079596 0.1070538 0.111329295 0.16000769 -0.2630965 0.21927445 -0.08755018
-0.05914077 0.25410765 0.23155427 -1.1641763 -1.0392104 -0.46807373 -0.3588061 -0.5667623
0.082272366 0.13995549 0.22415172 0.2567236 0.44134313 -0.60662144 -0.40867004 0.083474725
0.102480516 0.26603854 0.21494937 0.36825925 0.029779047 0.36837432 0.19774671 -0.29898882
-0.31113213 -0.2480404 -0.39853895 -0.31914344 0.04161506 0.031893596 0.021980409 0.23882711
0.17746146 -0.011645653 -0.040453587 0.25034538 0.75336146 0.1599676 0.50896406 0.1259836
0.29604018 -0.006399961 0.02936966 -0.3717436 -0.5048523 -0.69214636 -0.7275788 -0.74031556
0.14451854 0.14613508 0.09112999 -0.07041781 0.018951938 0.12795256 -0.07554006 0.03843953
-0.13834421 -0.25584403 0.031015677 0.010011977 0.11855319 -0.09675254 -0.0014479553 0.0051526763
-0.32330367 0.15640871 -0.3386937 -0.6292763 0.26769987 0.4437597 0.013849139 -0.13330881
-0.25659487 -0.14986116 -0.112193525 -0.08378132 0.5210113 -0.28091553 0.1531775 -0.12850945
0.14513591 -0.2660894 -0.33698457 -0.13849398 0.1816316 0.5884346 0.4677336 0.46478504
0.3098882 0.5889251 0.23799524 0.13016321 -0.21481499 -0.19331323 0.0023981363 0.071100354
0.17006883 0.112926945 -0.073505215 0.07437502 0.02996738 0.24149136 0.3162174 0.04535654
0.15715092 0.23950559 0.20448919 -0.04789199 -0.91964424 -0.66327065 -0.017914899 -0.40623525
-0.3576289 -0.37563863 -0.32876164 0.052772254 -0.07853184 -0.13773306 -0.084212184 0.010382524
0.23661683 0.16953403 -0.014768505 0.069029495 0.2774707 0.26972198 0.327487 0.22080806
0.005635069 0.04865404 0.18889591 0.1885024 0.09349856 -0.056234617 -0.72628105 -0.35522136
-0.66265416 -0.55005795 0.17625198 0.19383085 0.5735679 0.26320514 -0.07572675 0.21224362
0.5456768 0.11847388 -0.14370252 0.052392703 0.110454835 0.1545236 0.243212 0.31462792
0.22634849 0.17989871 0.15990686 0.10349244 -0.07835219 0.06659038 0.027423225 -0.13969028
0.1646971 0.10954057 0.19223371 0.18125871 0.5897752 -0.022772396 0.681199 0.38509107
-0.4914061 -0.92943054 -0.15567292 -0.23650445 -0.29183975 0.021696819 0.22712776 -0.07193174
0.38712087 0.34674397 0.07362639 -0.3718682 0.21120963 0.4345591 0.18969703 -0.028064946
0.5796137 0.4141908 0.48159644 0.048668858 0.39541438 0.3782496 0.19829823 0.08599582
0.2195086 -0.09305076 -0.24844809 0.33133078 0.4694619 0.37895474 -0.055399522 0.015582181
0.14624014 0.102262035 0.18244231 -0.046516992 -0.106235415 0.046494264 -0.035137847 -0.08036819
-0.64156896 -0.33136865 -0.07219094 -0.15195176 -0.16096477 0.17269187 -0.085962966 0.05468523
0.12456374 -0.01662514 0.094332315 0.12827247 0.07934684 0.07487316 0.12779054 0.2771318

conv2.1.weight f4 [64]
00000000: 9c82 8e3f d45d 733f dc44 3d3f 28e3 403f
00000010: 008c 563f 597a 5e3f 6c82 3a3f c281 a23f
00000020: a48a 2e3f 197f 4b3f 1174 5e3f a1e0 663f
00000030: 6a64 353f 9bc2 873f ffb9 6d3f 0c79 593f
00000040: 7edb 6a3f 2ef5 153f 9d46 853f 30d0 6f3f
00000050: ef5b 753f e15b 4b3f 8b39 453f eff7 5e3f
00000060: 5aca 453f e0c9 823f 00c4 683f 569f 4c3f
00000070: 754c 593f 6e05 1f3f 36c3 5d3f edab 9e3f
00000080: dda0 4d3f ec32 463f d93c 4b3f 66d1 8e3f
00000090: 2bbe 5c3f ff8d 883f 7201 563f 4377 673f
000000a0: f44f 923f fefe 643f 2a5e a93f a848 643f
000000b0: 7f7a 4e3f 1adb 303f 4fb3 7b3f b071 5b3f
000000c0: f162 333f f1d2 4e3f f32e 6a3f b8a5 323f
000000d0: 13bf 3d3f 1530 4c3f 6640 323f 24c3 9c3f
000000e0: eb02 4c3f 8af2 593f 1134 413f 4497 2f3f
000000f0: 5b11 033f 53c7 4e3f 1260 613f 2b48 4f3f
1.1133609 0.95065045 0.73933196 0.7534661 0.83807373 0.8690544 0.7285526 1.2695849
0.681803 0.7949081 0.86895853 0.90186507 0.70856345 1.0606264 0.9286193 0.8495033
0.9174117 0.5857724 1.0412174 0.93677044 0.95843405 0.7943707 0.7704093 0.87097067
0.7726189 1.0217857 0.9092407 0.7993063 0.8488229 0.6211766 0.86625993 1.2396218
0.8032358 0.7742145 0.7938972 1.1157653 0.86227673 1.0668334 0.83595955 0.90416354
1.143065 0.8945159 1.3231862 0.89173365 0.80655664 0.6908432 0.9832048 0.8572035
0.7007285 0.8079062 0.9147789 0.69784117 0.7411968 0.7976087 0.69629514 1.2247052
0.7969195 0.8513571 0.7547007 0.6859019 0.5119836 0.80772895 0.88037217 0.80969495

conv2.1.bias f4 [64]
00000000: 4c59 fbbd 3ca5 90be 1b85 91be b792 35be
00000010: 9456 8abe 1805 b3be b9d2 49be 2ab4 06bf
00000020: 40f3 6ebe 5f3f 59be 44aa 87be 5ae1 ffbe
00000030: f9a3 91be fba4 6abe 7ee9 95be 1b07 00be
00000040: 98e8 9cbe 68ea 643e 7cc0 0bbb 1d7e 8ebe
00000050: 41b9 3bbe b504 04be 5219 51be e817 a9be
00000060: 5f34 0abe a2fa 83bd 4cdf b0bb 3271 debc
00000070: ad51 b1be 5502 94be 9f08 a3be 0f94 f2be
00000080: ad2b 94be 6a3e 3cbe 14f2 a7be 7703 88be
00000090: d8f4 04be aa49 2dbd e9d5 b7bd 463d 2cbd
000000a0: 297b b1bd de3a 85be e79d 95be 4dd0 6abe
000000b0: ee1d c7bd 3d7a 75be f576 85be 860a 15be
000000c0: b2d5 aebe c9b1 70bd 276c 24be d22a 4dbe
000000d0: 6113 55be aa12 5cbe 9323 6dbe f774 8abe
000000e0: 9cdd 433e bbb0 bebe 3f9d 2fbe 6c47 c2be
000000f0: 8834 183e 885d 22be 60e9 02be a5fd 68bc
-0.122728914 -0.28251064 -0.28421864 -0.17731749 -0.2701918 -0.34964824 -0.1970929 -0.5261866
-0.2333498 -0.2121558 -0.2649709 -0.49976617 -0.28445414 -0.22914498 -0.29279703 -0.1250271
-0.30646205 0.22355044 -0.0021324446 -0.27830592 -0.18332388 -0.1289242 -0.20419815 -0.33026052
-0.1349654 -0.06444289 -0.005397713 -0.027153585 -0.34632626 -0.2890803 -0.31842515 -0.47378585
-0.28939572 -0.18383184 -0.32801878 -0.26565143 -0.12984025 -0.04230658 -0.08976347 -0.042050622
-0.08666069 -0.26021475 -0.29222032 -0.22931023 -0.097225055 -0.23972411 -0.2606732 -0.14554796
-0.34147412 -0.0587633 -0.16056882 -0.20035866 -0.20808174 -0.21491495 -0.23158102 -0.27042362
0.19127506 -0.3724421 -0.17149828 -0.37945116 0.14863789 -0.15855992 -0.12784338 -0.01422063

conv2.1.running_mean f4 [64]
00000000: 536a bbbf df61 4441 0fc5 a8c0 b0de ccbf
00000010: 4170 a6bf e549 2ac0 e071 edbf 566d e340
00000020: c8dd aabf e4c0 07c0 efef a440 3d11 cbc0
00000030: eee6 ad40 6282 99bf c452 2ec0 fbec 91bf
00000040: b768 a2c0 8413 7bc1 aeef 00c1 173e e1bf
00000050: dd3f 2cc0 819c 2641 3fdd 48bf b985 2141
00000060: 75fc d440 0f76 0a3f 5e33 0dc1 acaf 3dc1
00000070: 1c62 e6c0 90d1 7ac0 b8a3 5ac0 cdb0 2fbf
00000080: 9654 2e40 c00a 76c0 cfb3 3bc1 e7af e53e
00000090: 82ee a3c0 230c 23c0 8fa8 84be 9e36 84c0
000000a0: fde8 273e bd5a 19c0 9bad 3741 ad65 86c0
000000b0: e084 47c0 8830 92c0 b12c aec0 d069 c4c0
000000c0: a105 7e40 2f36 aec0 e032 223f 537f aa40
000000d0: 1878 b03f 0007 543d 39ba da40 9521 74be
000000e0: f666 19c1 b367 cfc0 5edf 8440 3536 6ec0
000000f0: 223c 35c1 571e d740 47b0 0dc0 fc32 cc40
-1.4641823 12.273894 -5.274055 -1.6005459 -1.3003007 -2.6607602 -1.8550377 7.1070967
-1.3348932 -2.121148 5.154289 -6.3458543 5.4344397 -1.1992915 -2.7238016 -1.1400446
-5.0752826 -15.692265 -8.058516 -1.7597073 -2.691398 10.413209 -0.78462595 10.095147
6.6558175 0.54086393 -8.825041 -11.855389 -7.1994762 -3.9190407 -3.4162426 -0.6862915
2.7239127 -3.8444061 -11.731399 0.44860765 -5.1228647 -2.5476158 -0.2590985 -4.131667
0.16397472 -2.3961632 11.479884 -4.1999116 -3.117485 -4.568424 -5.4429555 -6.1379166
3.9690936 -5.444114 0.6335888 5.3280425 1.378665 0.05176449 6.8352323 -0.23840936
-9.587637 -6.4814086 4.1522665 -3.7220585 -11.327181 6.7224536 -2.213884 6.3812237

conv2.1.running_var f4 [64]
00000000: 55ba ba42 1ee9 5842 188b 1442 1042 c942
00000010: 2577 cd42 c7ac ad42 56a5 2b43 5059 0e42
00000020: 0f43 0842 ea11 b942 e8e3 7e42 b514 cb41
00000030: c5ec d641 3a0c dc42 5ad4 8a42 c10d c042
00000040: 1cd8 5342 2456 d741 1d1a fc41 e91a d341
00000050: f360 8442 1228 4a42 e683 a041 76e9 2242
00000060: 6300 a541 7e53 c242 a575 f241 6457 3b42
00000070: eff4 9342 b442 9d42 b8d5 a141 fb33 ab41
00000080: 4a8a 7f42 cb72 5b41 2f73 2f42 24aa 0343
00000090: c26e 2142 4e07 ea42 7259 de41 fbf4 8641
000000a0: b880 c342 39dd 8b42 3c46 2042 22b3 d141
000000b0: 47e9 c441 2963 a341 5d45 6942 4907 df41
000000c0: f413 1342 4957 2b42 03a7 b342 6381 a642
000000d0: 82c7 c541 b6d2 3642 e5e7 ff41 0a27 ca41
000000e0: 9ecb ec41 c7b8 7442 e7ad 1b42 a61e d841
000000f0: 73ef e141 2dc7 6d42 5d55 c042 dc9c 2242
93.36393 54.227654 37.135834 100.62903 102.732704 86.837456 171.64584 35.58722
34.065487 92.53499 63.722565 25.38511 26.86561 110.02388 69.41475 96.02686
52.961044 26.91706 31.51275 26.38814 66.189354 50.53913 20.064404 40.72799
20.625189 97.16307 30.307444 46.835342 73.978386 78.63028 20.229355 21.400381
63.885048 13.715526 43.862484 131.66461 40.358162 117.01427 27.793674 16.86962
97.7514 69.932076 40.06859 26.212467 24.613905 20.423418 58.317738 27.878557
36.769485 42.83524 89.826195 83.25271 24.722416 45.705772 31.98823 25.269062
29.599422 61.180447 38.919827 27.014965 28.241919 59.444508 96.166725 40.653183

levels.level_0.wavelet.P.operator.1.weight f4 [64, 64, 3]
00000000: a347 f1be 8973 cabe 1caa 8abe d815 b33d
00000010: 0997 71be 6b29 acbe ada5 13bf 8996 15bf
00000020: 1c9f 24bf b559 81bd 6d50 293d 8a08 933e
00000030: c008 35bf 22ec 38bf 21be 3fbd 15f1 a5bd
00000040: 46a2 b73d 39bd 043d 2a8e c1be 70b9 0abf
00000050: 1641 a0be 7b39 00be 192d 833d 64af 9e3e
00000060: bdc6 acbd 9d8e 91be 483f ddbd 9251 9a3e
00000070: fb93 8cbe 4b0f fdbe 3e55 1bbe e80d 29be
00000080: b975 cdbe fa5c 16bd ffaf 90be 8121 8cbd
00000090: e19c 833d 5736 dcbd 6709 82bc cb36 94bd
000000a0: a489 d3be bb6a 5bbe 3970 eebd e84a 0cbe
000000b0: 9dfb e33d 01e4 983e 7350 7fbe 4707 14bf
000000c0: 7e44 46be 8882 70bd 272f ec3d a917 a4be
000000d0: e915 453d 837c 8bbe 8d29 ffbd c944 09bf
000000e0: 6538 d7be 06d8 4e3d 1c8b f6bd 3f67 90be
000000f0: 333e 59be 635a 773e 83b4 ca3a 6c5c cabe
00000100: 35c5 84be e880 f5be 98f9 193e 5751 4d3e
00000110: e9d2 b73d 79a1 043f faef dc3e 28ba 8f3e
00000120: 0f5e c6be 06a6 41be c7de 9dbe f8a8 23bf
00000130: 8f93 5ebf 7c25 4dbf c398 a4be 35f5 a5be
00000140: db03 cebe a52a 043d 65b5 38be e169 00bd
00000150: 6cd5 e8bd fd99 bebd 1007 3a3e 6987 ec3c
00000160: 8129 08be 975a 9c3d 41da 17bf 6ce2 67bf
00000170: 09ae 8fbe 9613 9cbe faf3 84bf 5c59 92be
00000180: 7a7b 063d 970c 5b3c 861c c33d e143 8dbe
00000190: ecf3 363e 0a09 a03e 4def a8be 353d 0ebe
000001a0: 4ebe e7bd 61e4 91be 1a33 a5be 897c e5be
000001b0: e818 813e 553a 3d3e 47f0 cb3d a3eb 3bbf
000001c0: 6e0d 35bf d007 34bf d192 723e 7592 c93c
000001d0: 7224 fdbd efd4 853d bb8f dc3d 63f0 c63d
000001e0: bc3a 97be 3e37 4ebf 33f7 44bf b54d 99bd
000001f0: 6dc2 643d 9b8a 123d c24f 61bd 16c4 823d
00000200: 7d41 7dbd 13fe aa3b 4559 07be 911e e5be
00000210: 1dce 9bbc 3d56 e1bd fe3f f63d ce9d 1abf
00000220: 187e cbbd ac4e 433f 0d87 353d 3afa b3bc
00000230: 253b 123e e954 80be c0c6 54bd 26d5 87be
00000240: bb08 5abe e553 3ebd 3b85 8d3d 5b89 933d
00000250: 9677 0fbf ea82 f2bd a1b5 8abf cbaa 54bf
00000260: 567f 35bf 58b9 513e 7f57 54bc 4590 923b
00000270: 2f71 0bbe 5862 d7be 7402 11be bac8 c3be
00000280: bff1 1fbe 6187 4bbc 1656 ecbb ef3c 143d
00000290: 4d1f c9bd 619a 3ebe b719 5abf 0536 4abe
000002a0: 159a 56bd 1452 383d ba77 d7be e338 a73c
000002b0: 9df1 dc3d a7a9 5e3e ac58 0abe a51c b6bd
000002c0: 2764 e8bd 3805 5c3c 5ff7 0a3e 7d13 dabe
000002d0: c21e 98be e3ff a5be 587c 0cbf 14fb 2b3d
000002e0: 059a b6be 3ee7 4cbf 4be6 2cbe 8b84 10bb
000002f0: 0f1a e33d 1d31 67be eb4a 323d 5fe1 1ebf
00000300: 6b0d 0dbe 9013 3e3d 1ffe 2dbe 8a4e 54be
00000310: 50fa 88bd 0f6c cfbd 3e29 88be 7f71 94be
00000320: 04a6 a2bc 9ece b9be fbd6 81bd f85d 16be
00000330: f75e ae3d e67d 353d 35b1 1cbf 2323 363e
00000340: 5d52 98bd 4f0d edbd e17d 653e c8c1 863e
00000350: f905 febe d610 18bf 11bc 1fbe 04a7 6cbc
00000360: 49b1 87be adc4 cbbd d95e 88bd fd4c 7ebd
00000370: 5b4f 323d 8060 b63d efd7 be3c 41c2 a9bd
00000380: d7ec 9c3d c95d 013e 2c31 3b3b c12c babd
00000390: ae3b cb3e 77c4 3abe 7e14 b5be c65c 013e
000003a0: e0ce 353d c502 7e3e a9a7 203e a47d c03c
000003b0: 836c 70be e905 c3be c1ed 8d3c b67a 173e
000003c0: 935c 69be a47a 903e a3d1 7d3d fdfb b6be
000003d0: 372e ad3d 16d3 b3bd abc8 ba3e b7e2 ef3e
000003e0: 0a95 04bf 0101 7f3e 1981 203e cabb a0bd
000003f0: 1da2 77be b570 93bc 0117 b73c 6109 c4ba
-0.47124967 -0.3954127 -0.27082908 0.08744401 -0.23592772 -0.3362535 -0.57674676 -0.58432823
-0.6430528 -0.063159384 0.041336466 0.28717452 -0.70716476 -0.7223531 -0.04681218 -0.081026234
0.08966498 0.03240702 -0.37803775 -0.54189205 -0.31299657 -0.12521927 0.06405086 0.30993187
-0.08436344 -0.28429118 -0.108030856 0.30140358 -0.2745665 -0.4942573 -0.15169236 -0.16509211
-0.40128878 -0.036709763 -0.28259274 -0.06842328 0.06426407 -0.10752552 -0.015873624 -0.072370134
-0.4131595 -0.21427433 -0.116424985 -0.1370045 0.11131976 0.29861453 -0.24933033 -0.57823604
-0.19362065 -0.058718234 0.11532431 -0.320493 0.0481166 -0.27243432 -0.12459097 -0.5362058
-0.42035213 0.050498985 -0.12038252 -0.2820377 -0.21215133 0.24155574 0.0015465174 -0.39523637
-0.25931707 -0.4794991 0.15036619 0.2005056 0.08975775 0.5180889 0.43151838 0.28071713
-0.38743636 -0.18910989 -0.30834028 -0.639297 -0.86943907 -0.8013532 -0.32147798 -0.3241364
-0.40237316 0.03226723 -0.18037947 -0.031350974 -0.11368832 -0.09306715 0.18166757 0.028873162
-0.13297082 0.07634466 -0.59317404 -0.9057987 -0.28062466 -0.30483693 -1.0386956 -0.285838
0.0328326 0.013369701 0.09526925 -0.2759085 0.17866486 0.31256896 -0.32995072 -0.13890536
-0.113155946 -0.28494552 -0.3226555 -0.44821575 0.25214314 0.18479283 0.09957939 -0.7340643
-0.7072362 -0.7032442 0.23688819 0.024605969 -0.12360467 0.065347545 0.10769602 0.09713819
-0.29536998 -0.8055304 -0.76939696 -0.074855246 0.05584948 0.035776716 -0.055007704 0.06385057
-0.061830033 0.0052182763 -0.13217647 -0.44749883 -0.01901918 -0.11002777 0.12023924 -0.6039704
-0.0993616 0.7629192 0.044318248 -0.021969903 0.14280374 -0.2506478 -0.051947355 -0.26529807
-0.21292393 -0.046466727 0.06910177 0.07203933 -0.5604185 -0.11841376 -1.0836679 -0.8307311
-0.70897424 0.2048086 -0.012960314 0.0044727647 -0.13617395 -0.42067218 -0.14161092 -0.3823908
-0.15619563 -0.012422414 -0.0072124107 0.036190923 -0.09820423 -0.18613578 -0.8519549 -0.1974717
-0.052393038 0.04500015 -0.42083532 0.020412868 0.107882716 0.21744405 -0.13510388 -0.08892182
-0.113472275 0.013428979 0.13570927 -0.42592993 -0.29710966 -0.3242179 -0.54877234 0.041987494
-0.35664383 -0.8004035 -0.16884725 -0.0022051658 0.11088955 -0.22577329 0.04352848 -0.6206264
-0.1377465 0.046405375 -0.16991471 -0.20733085 -0.06688368 -0.101280324 -0.26593965 -0.2899284
-0.019854553 -0.3629045 -0.063398324 -0.14684284 0.08514207 0.04430952 -0.61207896 0.17786841
-0.074375845 -0.11574804 0.224113 0.26319718 -0.49613932 -0.5940069 -0.15599085 -0.0144441165
-0.26502445 -0.09949622 -0.06658716 -0.06208514 0.04353271 0.08905125 0.023296325 -0.08289004
0.07662361 0.12633432 0.0028563244 -0.090905674 0.3969397 -0.18239008 -0.35367197 0.12633047
0.044386744 0.24805744 0.15688957 0.02349741 -0.23478894 -0.38090447 0.017325284 0.14792904
-0.2278922 0.28218567 0.061967503 -0.35739127 0.084560804 -0.08780496 0.36481223 0.46852657
-0.51789916 0.24902727 0.15674247 -0.07848318 -0.24182935 -0.017998079 0.022349836 -0.0014956408

levels.level_0.wavelet.P.operator.1.bias f4 [64]
00000000: eeae c1be e7ce d8be 876d 02bf 7b73 57be
00000010: b7a9 84be 4a54 1dbe 8d5e d9be 2c99 cabe
00000020: c691 8abe 0b04 bebe d6e4 e1be 88dc 6abe
00000030: bf72 80be 1677 e1be 2031 ccbe 028c 57be
00000040: fbbe 1abe b05e fbbe 878b 9fbe c175 6dbe
00000050: fc94 f8be 21cd f4be b967 a6be a4f6 cdbe
00000060: 450a bebe 1e87 f5be 1fdc e9be ec7e e1be
00000070: 156c a3be 8464 bbbe 0b00 9dbe a485 efbe
00000080: a5f5 9ebe 59f7 19bf d73f e2be fbea 8cbe
00000090: 6d31 fdbe e9a7 a4bd bd9f 7ebe 1f6a d4bd
000000a0: 7aa4 5bbe 8575 babe 5c2d 5bbe e157 06bf
000000b0: 2cb0 9bbe d2c6 98be 7bf5 9dbe d6f8 9fbe
000000c0: 9a5a 86be 30fc a8be 7568 aebe f06a a7be
000000d0: 96d0 2ebe 9e72 2fbe c94b 42be c1c6 7ebe
000000e0: 1e2a e5be 9d71 41be 3446 d9be f585 d2be
000000f0: c27b aebe ac06 7bbe d75f 8bbe 7c33 95be
-0.37828773 -0.42345354 -0.50948375 -0.21040146 -0.25910732 -0.15364185 -0.4245495 -0.39569986
-0.2706434 -0.3711246 -0.441199 -0.22935688 -0.25087544 -0.44036168 -0.3988123 -0.21049502
-0.15111916 -0.49095678 -0.31161138 -0.23189451 -0.48551166 -0.4781275 -0.3250101 -0.40227234
-0.3711721 -0.4795465 -0.45675752 -0.44042146 -0.31918398 -0.36600125 -0.30664095 -0.46781647
-0.31046787 -0.6014305 -0.4418933 -0.27523026 -0.4945177 -0.08039839 -0.24865623 -0.103718035
-0.21449462 -0.36417785 -0.21404022 -0.5247784 -0.30407846 -0.29839188 -0.3085135 -0.31244534
-0.26240999 -0.33004904 -0.3406407 -0.32698774 -0.17071757 -0.17133567 -0.18974222 -0.24880506
-0.44758695 -0.18890996 -0.42436373 -0.41117826 -0.34078795 -0.24514264 -0.27221557 -0.29140842

levels.level_0.wavelet.P.operator.4.weight f4 [64, 64, 3]
00000000: 4292 a13e 4f94 0f3f 5daf 903e d64c 9b3e
00000010: 2264 68bb f3d8 03bf bb65 1f3d 1593 8b3d
00000020: fd32 623e 3fe9 cbbe 4ca6 94bd 3f3c 893d
00000030: f435 083f 21c0 433e c70d 91bd 1bce b6bd
00000040: 6728 c83d 0c71 ea3d 1961 c4bd 9591 efbd
00000050: 6036 77bc 5055 eebe d8e8 90be 7c2d 2cbe
00000060: 6538 96be 289a d2be 1631 e0bd 1747 3c3c
00000070: 9068 293e 178b 763d 73f9 de3d ef2f a0be
00000080: cc62 e2be 29fa d5bd e2c0 b93d df16 d5bd
00000090: dd2f 11bf 8194 c7be 041b a9be 572f a13d
000000a0: 5569 9cbd 9b67 37be 2bd7 13be 796c f43d
000000b0: ab78 a03e 9017 3b3a 8c0a fabd f01f 3bbe
000000c0: 0d66 5bbe b008 21be d0cd 2a3e 1775 00be
000000d0: 028a 20be 2826 d53d 1b66 41bb 5691 6c3e
000000e0: ea95 91bd 1717 a53d 8f36 ad3d b063 ed3d
000000f0: f307 6fbe 3b68 253e c3c6 84be d000 c1be
00000100: 0470 8dbe a6ee 1ebf 64e9 ae3d ac2f db3d
00000110: 3b7a 513e 3496 cc3e 135d 3b3e 065a 4c3f
00000120: 8231 36be 7795 ad3d 6ca3 de3e a7a4 223e
00000130: cf19 fabe 462a 16bf 788a d8be 1d05 c5be
00000140: 1095 6bbe 8c23 55be 2d92 5cbe 9dd1 eb3d
00000150: 85c3 853e 7190 773e e925 873e 4b06 16be
00000160: 9c6a bfbe 656e 66bd 2824 e23e 2d9e 65be
00000170: 8e76 7e3e 083a d83e 7d6e 91be 61fd a8be
00000180: 59d6 193e 8cb8 473d 5e90 003e 0f96 de3d
00000190: 78bd e43d 674f 133f e207 2b3e bac7 8dbc
000001a0: 9364 63be 9180 54bd e5bf 00bd 057e 8cbd
000001b0: 5c8f 45be 8d34 cebd 2872 e1bd 66e9 a63c
000001c0: bb2f 03bc d5df 163e 15bd 11be 1834 fc3e
000001d0: 1dac 68be 03d7 af3d 23fb e43d 4efe 403e
000001e0: 2072 ac3d d78a 85be fff7 223e 7278 1fbd
000001f0: 19a0 933e 9d38 4c3f a8e0 aa3e a648 e73e
00000200: b12b 21bd b5e5 8a3d 8e51 573d 6514 3e3c
00000210: 4352 a83e 1d6a a13e e6ff 893e 1120 a13b
00000220: d27d 643e 7269 9f3d 9f2a 233f 465c bb3d
00000230: d78d 803d c8dd 143d 17f5 9f3d 8787 3fbc
00000240: 900c 733f 5fec 813e ea70 053f 9ed3 013f
00000250: a2fb e13d 3f94 4a3d 1a22 a8be 690e 7d3d
00000260: 0d1a 0a3e 8a32 38be 0bde 48be c6a7 3ebe
00000270: 5e8b 79bd 82f3 053d b3d7 123e 6a09 713d
00000280: ced8 a2bd b0a5 56be 23ef ba3e e4f0 f1bd
00000290: 8558 a83d 230e 49bd dbe8 b43e c083 29be
000002a0: 2909 01be dbba 9dbd bf94 90be 7878 9b3e
000002b0: fda3 0aba d24a 2a3e 6f4f 283d a995 493d
000002c0: 2795 413e ac39 75be b51a e7be 4b92 24be
000002d0: 4c5c 8ebe bc30 bd3d 4c7e 353d e161 583d
000002e0: f6fa 383e f1f9 2d3e ab04 b5be d4c5 06bf
000002f0: d6c3 20be 776a 5d3e 892f 433f 73ba af3d
00000300: 9e2d f43e 12c5 f93e 86fc 623e 8c26 84bd
00000310: e85d 013e cce3 513e 8b5f d33e 40b5 773e
00000320: e0ca 573d 3003 233e 1f19 0a3e ecee 463e
00000330: 6dda d6bc adc3 c8bc 79b7 66bb e617 733e
00000340: 41eb 563e 2185 d4bd d1b3 a23d abd2 923d
00000350: 2367 d5bb d543 07bf 640b d6be 930e c9be
00000360: 2eaa 86bb bf10 0cbe 6384 dfbd 15e2 c23d
00000370: a9dc f53e 30fb 123f a5e4 023d 1d1b bebc
00000380: 9f94 b7bd 2027 e6be 807b 80be 7601 32be
00000390: 907d de3e c1fb f83e ab38 013f 9ede ab3b
000003a0: 4d01 39be fdb1 70be e259 00be 3608 b4bd
000003b0: 2730 85be 548d 613a e8aa 1fbe 441e d6bd
000003c0: 67c7 c5be d8cd 46be 4ef8 f5be cdd7 13bc
000003d0: ee1a c1bd 8ac2 eebd ce3d e33e 7d1e 853e
000003e0: 90d2 913e 2f27 943d 412c 35be 0b0f 03bd
000003f0: 390d 853d 6b3c 01be b0f8 1abe f9e1 0cbe
0.31556898 0.56085676 0.28258792 0.3033206 -0.0035460074 -0.51502913 0.038915377 0.06815163
0.22089763 -0.3982639 -0.07258281 0.06700944 0.53207326 0.1911626 -0.07082706 -0.0892603
0.09773331 0.11447343 -0.095888324 -0.116976894 -0.015088648 -0.46549463 -0.28302646 -0.16814226
-0.293399 -0.41133237 -0.109468624 0.0114915585 0.16543794 0.06019124 0.108874224 -0.3128657
-0.44216 -0.10448105 0.090699926 -0.10404753 -0.5671366 -0.38980487 -0.33028424 0.078703575
-0.07637278 -0.17910616 -0.14437549 0.11934752 0.31342062 0.0007136995 -0.12209043 -0.18273902
-0.21425648 -0.1572597 0.16680074 -0.12544666 -0.15677646 0.10407668 -0.0029510322 0.23102316
-0.07108672 0.08061045 0.08457672 0.115912795 -0.23342876 0.16153042 -0.25932893 -0.37695932
-0.27624524 -0.620829 0.085406095 0.10702452 0.20456783 0.39958346 0.18297224 0.79824865
-0.17792323 0.08475774 0.43484056 0.15883122 -0.48847815 -0.58658254 -0.42293143 -0.38480464
-0.23006082 -0.20814341 -0.21540137 0.1151459 0.26125732 0.24176194 0.2639611 -0.14650838
-0.37386024 -0.056257624 0.4416821 -0.2242362 0.24849913 0.42231774 -0.28404608 -0.33005813
0.15023173 0.048759982 0.12555072 0.10868465 0.11168951 0.57543033 0.16702226 -0.017307151
-0.22206335 -0.051880423 -0.031433005 -0.06859974 -0.19292969 -0.10068617 -0.11008102 0.020374965
-0.008006985 0.14733823 -0.14232285 0.49258494 -0.22721906 0.08585932 0.11180713 0.1884701
0.08420205 -0.2608249 0.15914916 -0.038933225 0.28833082 0.79773885 0.33374524 0.45172614
-0.039348308 0.067820944 0.05256801 0.011601542 0.3287526 0.3152627 0.26953048 0.0049171527
0.22313622 0.07783784 0.6373691 0.09148459 0.06277054 0.03634432 0.07810419 -0.011690027
0.94941044 0.2537565 0.5212542 0.5071353 0.11034323 0.049457785 -0.32838517 0.06178132
0.134865 -0.17988029 -0.19615953 -0.18618688 -0.060923927 0.03270293 0.14340095 0.05884687
-0.079515085 -0.20961642 0.36510572 -0.11813524 0.08220009 -0.049085747 0.35333905 -0.16554165
-0.1260115 -0.077016555 -0.28238484 0.30365348 -0.00052887184 0.16630104 0.04109138 0.049214993
0.18904553 -0.23947781 -0.45137563 -0.16071431 -0.27804792 0.09237811 0.0443099 0.05282772
0.18064484 0.16989876 -0.35355124 -0.5264561 -0.15699705 0.21622644 0.7624441 0.08580484
0.47691053 0.48783165 0.22166643 -0.06452665 0.12633479 0.20497054 0.4128383 0.24190235
0.05268371 0.15919185 0.13486145 0.19427079 -0.0262272 -0.024507368 -0.0035204573 0.23739585
0.2098818 -0.10376955 0.079444535 0.07169088 -0.006512539 -0.5283788 -0.41805565 -0.39268932
-0.0041096425 -0.13678263 -0.10913923 0.09515778 0.48019913 0.5741453 0.031956334 -0.023206288
-0.08963894 -0.44951725 -0.25094223 -0.1738337 0.43455172 0.48629573 0.50477093 0.005245044
-0.18066902 -0.23505397 -0.12534288 -0.087906286 -0.260133 0.00086041284 -0.1559254 -0.104549915
-0.38628694 -0.1941446 -0.48041004 -0.009023619 -0.094289646 -0.11658199 0.4438309 0.25999823
0.2848096 0.07234036 -0.17692663 -0.031996768 0.06496663 -0.12620704 -0.15133929 -0.13758077

levels.level_0.wavelet.P.operator.4.bias f4 [64]
00000000: c493 203e 3f5c 083f a08b 10be c99d 033f
00000010: 4a3e 3f3e f2df da3d dba8 ea3e 0aba 76be
00000020: fde2 5c3e 2cc4 8c3e fed3 b73e 52be 9dbc
00000030: ceab 113e 5bbb c23e fe28 663e 1f5e 933e
00000040: f0f2 ca3e ab96 8d3d d08a 9a3e 8dd0 1ebe
00000050: 406c 193f 627b 8c3e b303 573e 5450 6e3e
00000060: 3449 3fbe b9af 143f 3d56 1e3f 2e33 5ebe
00000070: 5460 a43e 9d3f be3e 5a16 ce3e eb83 073e
00000080: f632 f13e cc14 823d bfe6 7b3e 216a 6f3e
00000090: cb72 0e3f e09f e23e ffa3 0f3f 22fc bc3e
000000a0: 2a5d a53e 38f2 1a3e ca7a fa3d c18c 903e
000000b0: 6de2 b03e e902 833e a3ef e93e 5112 983e
000000c0: 7a06 563e 2843 2f3e a3e8 b03e 46a4 bb3e
000000d0: 5b6a 0b3e 4bfb e83e d779 1b3e ce8c 1ebe
000000e0: d27c d0bd cf7f 3c3e cffc ef3e 7868 68bd
000000f0: b309 9f3e b8fe cc3e 8e58 1b3f 1037 be3e
0.15681368 0.53265756 -0.14115763 0.51412636 0.18676105 0.106872454 0.45831951 -0.24094406
0.21570964 0.27493417 0.35903925 -0.01925579 0.14225695 0.38033566 0.22476575 0.28782746
0.39638472 0.06913503 0.3018403 -0.15509243 0.599308 0.27437884 0.20997505 0.2327283
-0.18680269 0.5808063 0.6185034 -0.21699211 0.32104743 0.37157908 0.40251428 0.13233916
0.47109193 0.06351623 0.24599741 0.23380329 0.5564391 0.442626 0.56109613 0.36911112
0.3229764 0.15131462 0.122304514 0.28232387 0.3454775 0.25588158 0.4569064 0.29701474
0.20900908 0.17115462 0.34552488 0.36648768 0.1361479 0.4550422 0.15183197 -0.154834
-0.101800576 0.1840813 0.46872565 -0.056740254 0.31062087 0.40038085 0.60682 0.37151384

levels.level_0.wavelet.U.operator.1.weight f4 [64, 64, 3]
00000000: b3bc d1be e296 ebbe 460c 0ebf 284d 413e
00000010: 56ad 0c3d a0b7 eabd d7b2 d4be fdea 4d3e
00000020: e005 e33e 58a1 45bd a983 c6bd 7374 e0be
00000030: a59d d3be 39de bbbe 8b0f f8be ff1d 9fbe
00000040: 7cd4 b9be 7ad9 acbe 5bf7 2e3c 7dce 2e3d
00000050: 9bff a33e abdf 18be 5d80 a4be e23b b0be
00000060: 21f4 c43d 776f 833e 2334 713e 44d3 8ebb
00000070: b40b 433e a952 b8bc 006a a53d d1eb 6c3e
00000080: b41e 423e b076 acbc 9fdd 9fbe 1ccb e4bd
00000090: f8aa bf3c 03f7 45bf 3f95 a7be ccf3 643e
000000a0: 2850 793e 6548 a2bb 9ffe a9be c6a6 083e
000000b0: 9730 873d cf70 82be ccc9 bbbe 0d48 c7be
000000c0: 642b 88bd 31a0 9bbe a3de 09bf 2c5a 373c
000000d0: 690e 743e 2f40 4d3e 3324 39bd e2a7 41be
000000e0: e16a e0be 7ba1 b23d 1cc0 cfbc ec56 03bf
000000f0: a290 0dbf 8065 273e 5f0f c53d 3b06 f7bd
00000100: 60d9 e0be bb28 f6be 9f7a da3c 9423 bd3e
00000110: c256 623d 48f6 cdbe 4941 9bbe 91f7 fd3d
00000120: b7dd a9be 982b 5e3c e1dc 10bb 47f9 9fbe
00000130: 9bcc e8bd 44a6 e1bd 63af 363e 2c4d bc3d
00000140: eed8 583e 8dda 60be d1cd 94be 338a a5be
00000150: 94a0 a23d a55c b9bd 710d 93bd d37e 933e
00000160: 2f81 53bd fa2c 013d 349b 7f3e 9520 633d
00000170: fe25 5a3e c4f0 49bd e34c a5be c447 fbbb
00000180: 0a04 f4bd 3a76 7dbe 4851 79bf d6d3 52be
00000190: 5b2c 36bf d33a 0bbf 7615 233e 23b1 42be
000001a0: 8f8f 8d3d c8a4 9e3d 17c8 113e 7b7e 93be
000001b0: 47da 27bd 2e11 e5bd 2f23 91be a494 653e
000001c0: b9f2 183e 9dd3 05bd f180 9bbe 17b7 053e
000001d0: 9101 1dbf 89d6 18be 8391 e1be bc57 ecbd
000001e0: 0b4c afbe 7fae c1be 123b c9be d83a 53be
000001f0: 1b3c 893e 218c 73bd 61a2 6f3d 9eb9 debe
00000200: 8191 17bf 48ec bfbd cbb4 ac3d 1f48 a93e
00000210: d93c 6b3e 9245 a63c caa0 bfbe 5394 83be
00000220: 9456 a6be 4e52 3bbd e31e 2b3e a46d c03d
00000230: 2e65 ca3e faf6 43be acc8 babd a7e9 243e
00000240: b7ae 0fbe 0e97 5dbe 9a56 25bf 4a0e 95be
00000250: 7689 23be 5eae 803d 3d7f 093e 2766 033e
00000260: a78a 3bbe e1b1 603e ad91 103e 6fb1 babd
00000270: 26cb 73be a13b 5dbb 3476 0cbe d5cd 15be
00000280: 2373 c33d d2dc b73e 4fe2 4cbe 2eea 32be
00000290: 548f 823e 3444 1e3e 1c3d 3b3d 74ac 95be
000002a0: dbb7 41be 7cab ff3c c1e1 353d ca50 7f3d
000002b0: f5eb ddbe 0feb 82bf 2485 9cbf dbf3 95be
000002c0: c3b4 d4be 0013 77be 6edf 18be c9cf 71be
000002d0: 5c8d bb3d fb1a 003e 9d78 b33e 5419 a6be
000002e0: 1442 c23d 2fd1 febe c519 ee3c 0a6b 49be
000002f0: 4cff 883d f606 413e 5ca5 f3bd cc3b 9d3d
00000300: 0454 2a3e 9f3d cc3c 32e7 843c 0f81 a2be
00000310: 4287 cbbc 472d 103e 0169 57bd 328c 113e
00000320: 717c 82be 8635 fdbc 1409 ffbd 9927 ddbd
00000330: 8a4d 0a3e 92a7 ea3d 4431 0d3d b82d 82bd
00000340: 8da9 89be 7ef4 c5bd 87fd 813e 1150 cc3d
00000350: 5341 96bc 01d5 aebe 0d13 893d a1eb 0e3d
00000360: cdc0 203e 1c89 433e 8634 d83e b826 4fbe
00000370: fc11 b13e 8515 573e db58 a9bd 8607 923d
00000380: fd5e 963e d401 db3e e5e2 723e b4ca be3e
00000390: 093d 8ebd ef50 4abe 0f3d 45be 9f85 81bc
000003a0: bed6 14be 9dec 043e bf59 9f3d 7e5a bdbd
000003b0: a5e4 413e 1747 8c3e 3bd0 093e c6d3 4d3c
000003c0: 086a 78be cc4e febe 4dbf bebe 2b10 993d
000003d0: 4a1c 0c3e 7b0a 623d 6a2e 07bf ff52 a7bd
000003e0: a821 123e 865f d2bd 3c69 90be ce69 efbd
000003f0: 0928 983e dfc2 b2be c31a 9d3e 19d7 983d
-0.4096428 -0.46013552 -0.5548748 0.18877089 0.034344994 -0.11460805 -0.41542694 0.20109172
0.4434042 -0.048249573 -0.09693081 -0.43838844 -0.4133121 -0.3669298 -0.48449358 -0.31077573
-0.36294925 -0.3375967 0.010679091 0.04267739 0.3203095 -0.14929073 -0.32129183 -0.34420687
0.096168764 0.25670978 0.23555045 -0.004358681 0.19047433 -0.022500353 0.080768585 0.23136832
0.18957025 -0.021052688 -0.3122377 -0.111715525 0.023396954 -0.77330035 -0.32731053 0.22358626
0.24346983 -0.0049524778 -0.33202073 0.13344869 0.06601065 -0.2547669 -0.36677396 -0.38922158
-0.06648901 -0.30395654 -0.5385534 0.011190932 0.23833622 0.20044015 -0.045200538 -0.18911698
-0.43831542 0.08722206 -0.02536016 -0.5130451 -0.5529882 0.16347313 0.096220724 -0.12061735
-0.43915844 -0.4807795 0.026669798 0.36941206 0.05525852 -0.4022696 -0.30323246 0.12400735
-0.33176968 0.013560198 -0.002210431 -0.3124487 -0.113671504 -0.11018041 0.17840342 0.09194407
0.21176502 -0.2195837 -0.29063275 -0.32332 0.07940784 -0.09050874 -0.07180298 0.28807697
-0.05163687 0.031537034 0.24961549 0.055450995 0.21303555 -0.049301878 -0.32285222 -0.0076684672
-0.11914833 -0.24752131 -0.9738965 -0.20588621 -0.7116143 -0.54386634 0.15926155 -0.19012885
0.06912147 0.07746273 0.14236484 -0.28807434 -0.04097965 -0.111849174 -0.28347155 0.22419983
0.14936341 -0.032672513 -0.30371812 0.13058124 -0.61330515 -0.14925589 -0.4405633 -0.115401715
-0.34237704 -0.37828442 -0.3930288 -0.20627916 0.2680367 -0.05945981 0.058504466 -0.4350099
-0.59206396 -0.09371239 0.08432921 0.33062837 0.2297243 0.020296846 -0.3742736 -0.256991
-0.3248793 -0.04573279 0.16711001 0.09395912 0.3953032 -0.19137183 -0.091203064 0.16104756
-0.14031492 -0.21639654 -0.6458527 -0.29112464 -0.15970406 0.06283258 0.13427444 0.12831937
-0.1831461 0.21942855 0.14118071 -0.09115874 -0.23807964 -0.0033757465 -0.13716966 -0.146293
0.09543445 0.3591066 -0.20008205 -0.17472145 0.25499976 0.15455705 0.045712575 -0.29233134
-0.18917792 0.0312097 0.04440475 0.062332906 -0.43344083 -1.0227984 -1.2228131 -0.2928761
-0.4154416 -0.24128342 -0.14928982 -0.2361442 0.091578215 0.12510292 0.35052958 -0.324412
0.0948526 -0.4976897 0.029065022 -0.19669738 0.06689319 0.18850312 -0.11896774 0.07677421
0.16633612 0.024931727 0.016223524 -0.3173909 -0.02484477 0.14079772 -0.052590374 0.14213637
-0.25485566 -0.030909311 -0.124529034 -0.10798568 0.13506141 0.11457743 0.03447081 -0.063563764
-0.2688717 -0.09665774 0.2538874 0.09976209 -0.018341696 -0.34146884 0.06693087 0.034892682
0.15698548 0.19095272 0.42227572 -0.20229614 0.34584033 0.21004303 -0.08268901 0.07130341
0.29369345 0.42774832 0.23719366 0.37264025 -0.06945235 -0.19757436 -0.19261573 -0.015810786
-0.14535043 0.12980886 0.077807896 -0.09245776 0.18934877 0.27397987 0.1345834 0.012562698
-0.24259198 -0.49669492 -0.37255326 0.07473787 0.13682666 0.055185776 -0.528052 -0.08170127
0.14270651 -0.10272126 -0.28205287 -0.116901025 0.29718044 -0.349143 0.3068448 0.074629016

levels.level_0.wavelet.U.operator.1.bias f4 [64]
00000000: d714 52bd bb54 8fbb 06b8 0d3e 010d 41be
00000010: d4af cdbd 2930 7bbd ff9e 3dbe d6a4 cfbd
00000020: 0729 4ebe bbe1 eabd 113d 93be b2e2 82bd
00000030: 69ce 48be 4aca 3fbd d7f7 943d 8430 10bd
00000040: 204b adbc 61b8 51be 8cc1 f7bd d343 f3be
00000050: cc41 1ebe 8aa5 c4be a31a adbd 7758 6c3c
00000060: 7287 cf3d 9628 ff3d d297 3bbe 1a7e 71bd
00000070: f921 d0bd c589 903e d826 03be 2b5a 9bbe
00000080: b806 e9bd e81c bfbd 03d9 74be ff89 79bd
00000090: b33a 243e bcf2 a2bd caaf 8a3b 0451 16bd
000000a0: 291e 7b3d c5ad 63bc f54e 2ebe 6277 a03c
000000b0: 7a9d 66bd 93cc 31be e1e2 35be b2d7 223d
000000c0: 57ea e2bd a632 40be 13f2 d43d 193b 89bd
000000d0: e9a4 c5bd 3736 21bd b39d 34be 839c ddbd
000000e0: 3c4a 74bd 2180 fdbd 0969 1abe fb25 34bd
000000f0: 5bd3 053b 8346 a7be 6e66 d1bd d2c9 3abe
-0.051289406 -0.0043741143 0.1383973 -0.18852617 -0.10043302 -0.061325226 -0.18517683 -0.10138862
-0.20132838 -0.11468836 -0.28757527 -0.06390895 -0.19609989 -0.046823777 0.07273834 -0.035202518
-0.021153986 -0.20480491 -0.12097463 -0.47512683 -0.15454787 -0.38407546 -0.08452346 0.014425389
0.10133256 0.12458913 -0.18319634 -0.05895815 -0.1016273 0.2823011 -0.12807786 -0.3034223
-0.113782346 -0.09331685 -0.23910908 -0.06092262 0.16038017 -0.07956454 0.0042323815 -0.036698356
0.06130806 -0.01389641 -0.17022307 0.019588176 -0.056302525 -0.17363195 -0.17762329 0.039756484
-0.11079853 -0.18769321 0.103977345 -0.06700725 -0.09650595 -0.039358344 -0.17638282 -0.10820868
-0.059641108 -0.12377954 -0.1507913 -0.043981533 0.0020420167 -0.32670984 -0.10224615 -0.18241051
