checkpoint/2016.10a_AWN_model.pkl (torch, 507474 bytes, 24 tensors)

conv1.1.weight f4 [64, 1, 2, 7]
0	0xbd500369	-0.050784502
1	0x3ea5c8c6	0.3237974
2	0x3e185197	0.14874874
3	0x3c808f5c	0.01569336
4	0xbe6c1c3f	-0.2305765
5	0x3c156a92	0.009119647
6	0x3e2affb0	0.166991
7	0x3ec029da	0.3753193
8	0xbd02ab12	-0.031901427
9	0x3d715d48	0.05892685
10	0xbb257024	-0.0025243843
11	0xbe822583	-0.25419244
12	0x3e6a796c	0.22897881
13	0x3e6ae971	0.22940613
14	0x3e833706	0.25627917
15	0xbe18b0c5	-0.14911182
16	0x3d9c7ad7	0.07640617
17	0x3e5b6e6a	0.21428838
18	0xbd872271	-0.06598366
19	0xbec6d677	-0.388355
20	0x3d6d65da	0.05795846
21	0xbe36cc32	-0.17851332
22	0x3e5b671d	0.21426053
23	0xbde564b1	-0.11200846
24	0xbe0d1a89	-0.13779654
25	0xbe950446	-0.29104823
26	0xbeae774f	-0.340754
27	0x3e6f8dd0	0.23393941
28	0xbe0ce5f1	-0.1375959
29	0xbe30bc26	-0.17259273
30	0x3dae0781	0.08497525
31	0xbd2e153c	-0.04250072
32	0x3e0c2fe9	0.13690151
33	0xbdace2b4	-0.08441678
34	0x3e21a883	0.15786938
35	0xbeb1f6f0	-0.3475871
36	0xbe7492c8	-0.23884118
37	0xbe3e3d3f	-0.18578051
38	0x3d9a9a18	0.07548922
39	0x3e1b57b2	0.15170172
40	0x3e1b0965	0.15140302
41	0x3ef92610	0.48661852
42	0x3e85b723	0.26116285
43	0x3dd56c42	0.10421039
44	0xbd98393f	-0.07432794
45	0xbeb226dc	-0.34795272
46	0xbe0a57c4	-0.13510042
47	0xbd2e3daa	-0.042539276
48	0x3e882ee6	0.2659828
49	0x3ea05c8e	0.31320614
50	0xbde9e3d2	-0.114204064
51	0x3e2c1032	0.16803053
52	0xbdc0d565	-0.09415702
53	0x3e211eba	0.15734378
54	0xbd0b0564	-0.033940688
55	0x3e529377	0.20564066
56	0xbe4c32c7	-0.19941245
57	0xbd87798b	-0.06614979
58	0x3de6dbde	0.11272405
59	0x3e8ceb43	0.2752324
60	0x3d29f455	0.04149278
61	0x3e837f64	0.2568313
62	0x3dde7a75	0.108632006
63	0x3e9356ef	0.28777263
64	0x3e2641bf	0.16236018
65	0x3e3dc780	0.18533134
66	0x3e1fd979	0.15610303
67	0x3c8b12ca	0.016976733
68	0xbe0d3f83	-0.13793759
69	0xbeba1cbc	-0.36350048
70	0x3e967bfd	0.2939147
71	0x3e0b9350	0.13630414
72	0x3d909026	0.07058744
73	0xbdad7c4c	-0.08470973
74	0xbeb42113	-0.35181484
75	0xbe28e0b7	-0.16491972
76	0xbe8cc4a8	-0.27493787
77	0xbdd30f73	-0.10305681
78	0xbea6a6a9	-0.32549027
79	0xbddc4e0e	-0.10757075
80	0x3e66ff23	0.22558264
81	0x3ea441f3	0.32081565
82	0x3e57e3e4	0.21083027
83	0x3d0a3fc7	0.03375223
84	0x3ee92e9e	0.4554338
85	0x3d678e0b	0.056531947
86	0xbce875fc	-0.028376572
87	0xbe6111d7	-0.21979462
88	0xbccbbc24	-0.024869986
89	0xbe6dbf8c	-0.232176
90	0xbec09156	-0.37610883
91	0xbe0e0436	-0.13868794
92	0xbd965656	-0.07340686
93	0xbe050d8c	-0.12993449
94	0xbd52d99c	-0.05147706
95	0xbe0b3fd1	-0.13598563
96	0x3e172e58	0.14763772
97	0xbe799ab2	-0.24375418
98	0x3ee99666	0.45622557
99	0x3e6c1cb1	0.2305782
100	0x3d13c5da	0.036077358
101	0x3e34f9e0	0.17673445
102	0xbe55b42c	-0.20869511
103	0x3e3a3739	0.18185128
104	0xbdbc1caf	-0.091851585
105	0x3d20227c	0.039095387
106	0xbdd11750	-0.10209525
107	0x3e82a2de	0.25514883
108	0x3d40231e	0.04690849
109	0xbe0c1067	-0.13678132
110	0xbead3673	-0.33830604
111	0x3e2c9446	0.16853437
112	0x3e8e5c40	0.27804756
113	0x3e02409d	0.1271996
114	0xbe3d96bb	-0.1851453
115	0xbe611dcd	-0.21984024
116	0xbe293105	-0.16522606
117	0xbe6c7ce4	-0.23094517
118	0x3e943361	0.2894545
119	0xbe6bad88	-0.23015416
120	0x3bbc5281	0.00574714
121	0xbea19325	-0.31557575
122	0x3e543ff3	0.2072752
123	0x3e4ffa85	0.2031041
124	0x3d229d52	0.039700814
125	0xbe2bb89b	-0.1676964
126	0x3ebe1ff7	0.37133762
127	0x3d1ab163	0.037766825
128	0x3ea71a0e	0.32637066
129	0x3e3b05e6	0.18263969
130	0x3cd12b4e	0.025533345
131	0xbdf4ca1a	-0.1195261
132	0xbeb9a795	-0.36260667
133	0x3e7d8c75	0.24760611
134	0x3d051e2d	0.03249948
135	0xbc212cbd	-0.009837327
136	0xbdb5e22b	-0.08881029
137	0xbe765f42	-0.24059775
138	0x3e62df2e	0.22155449
139	0xbe720d89	-0.23637976
140	0x3dbc5245	0.09195379
141	0x3d5ef78b	0.054435294
142	0xbcefd192	-0.029274736
143	0xbec81d83	-0.39085016
144	0x3e594b77	0.21220194
145	0x3933dd6d	0.00017153258
146	0x3de36ecc	0.11105117
147	0xbe1da975	-0.15396674
148	0x3da055dd	0.07828877
149	0xbd65cd66	-0.056104086
150	0x3ec66f0a	0.3875659
151	0xbe9e0877	-0.30865833
152	0x3e416ca1	0.18889095
153	0xbdf9bfbb	-0.12194773
154	0x3ede3d44	0.43406117
155	0x3e1ffa70	0.15622878
156	0xbde94b01	-0.11391259
157	0x3d45cfec	0.048293993
158	0x3ab3a69d	0.0013706271
159	0x3bd666c8	0.006543014
160	0xbe96e244	-0.29469502
161	0xbeb1df36	-0.3474061
162	0xbe01ae1f	-0.12664078
163	0xbe09a271	-0.13440873
164	0xbc0adffb	-0.008476253
165	0x3e320312	0.17383984
166	0xbd25a682	-0.040441997
167	0x3e3cfe92	0.18456486
168	0xbd0fb5f8	-0.03508565
169	0x3e7de2ab	0.24793498
170	0xbce141d1	-0.027497204
171	0x3e1b43fc	0.15162653
172	0xbe4fd8a1	-0.20297481
173	0x3d939922	0.07206942
174	0xbe9f8f6b	-0.31164107
175	0xbe6e827d	-0.23291965
176	0xbec327d6	-0.3811633
177	0xbdfd6513	-0.12372794
178	0xbe05b7ab	-0.13058345
179	0xbefd2391	-0.49441198
180	0x3e27f20e	0.1640093
181	0xbe43bdb1	-0.1911533
182	0x3de90abd	0.11379001
183	0xbe0f858d	-0.1401579
184	0x3e3d7104	0.18500143
185	0xbd9a1d52	-0.07525124
186	0xbe9360bb	-0.28784737
187	0x3e66c44b	0.22535817
188	0xbcb54b4c	-0.02213063
189	0xbe0fe795	-0.14053185
190	0x3e8776bb	0.26457772
191	0xbd9d59f8	-0.07683176
192	0x3e43a573	0.19106083
193	0xbe99edc6	-0.3006422
194	0xbeae212a	-0.34009677
195	0x3eb66049	0.35620335
196	0xbda20759	-0.07911558
197	0x3d574e3f	0.052564856
198	0xbd99694b	-0.07490786
199	0x3e9ed1b9	0.3101938
200	0x3e71712c	0.23578328
201	0xbe4e5fdf	-0.2015376
202	0xbd50a66e	-0.05093997
203	0x3e41aee2	0.18914369
204	0x3e1aaa69	0.15104069
205	0x3d29c9ff	0.041452404
206	0x3e2eb813	0.17062406
207	0xbe749673	-0.23885517
208	0xbef620fe	-0.48072046
209	0xbecaeac8	-0.3963225
210	0xbd99e2fb	-0.07513996
211	0xbcc30889	-0.02380778
212	0x3d7327bf	0.059364077
213	0x3d10e3cb	0.03537349
214	0xbe641c35	-0.22276385
215	0x3d9f9c08	0.077934325
216	0x3f0c593c	0.5482366
217	0xbe49a296	-0.19690928
218	0xbcb91901	-0.02259493
219	0x3e9ca212	0.305924
220	0x3c571d3f	0.013129531
221	0x3de6885f	0.112564795
222	0xbcc9d267	-0.02463646
223	0xbd6264dd	-0.055271972
224	0x3e3510a8	0.17682135
225	0x3e44984c	0.19198722
226	0xbe039f65	-0.12853773
227	0xbe20fead	-0.15722151
228	0xbd89145f	-0.066933386
229	0xbe7fa7b9	-0.24966325
230	0xbe27da52	-0.16391876
231	0x3e817405	0.25283828
232	0x3e45f32b	0.19331042
233	0xbec5622e	-0.38551468
234	0xbe6fdf49	-0.2342502
235	0xbd870d28	-0.06594306
236	0xbca78a74	-0.020451762
237	0x3e970813	0.29498348
238	0xbeb57c41	-0.3544636
239	0xbe8bdbba	-0.27316076
240	0x3d5f2964	0.054482833
241	0xbe568dc9	-0.20952524
242	0xbe47b818	-0.1950382
243	0x3e30e5fe	0.17275235
244	0x3e9d756b	0.30753645
245	0xbe68b778	-0.22726238
246	0xbc8c237f	-0.01710677
247	0x3d86deec	0.06585488
248	0x3e5ffc2c	0.2187354
249	0xbe34825e	-0.17627856
250	0x3e0c03cb	0.13673322
251	0x3ec8b130	0.39197683
252	0x3ccd2082	0.025039915
253	0xbe3ab116	-0.18231615
254	0xbe5cab17	-0.2154964
255	0xbe233fdb	-0.15942328

conv1.2.weight f4 [64]
0	0x3f754a06	0.95816076
1	0x3f88ad32	1.0677855
2	0x3f9ffa66	1.249829
3	0x3f50f616	0.816255
4	0x3f818a32	1.0120299
5	0x3f877b93	1.0584587
6	0x3f84467a	1.0334008
7	0x3f501bd9	0.8129249
8	0x3f7918d5	0.97303516
9	0x3f977905	1.1833807
10	0x3f754ca8	0.95820093
11	0x3f921bde	1.1414754
12	0x3f5f85af	0.8731336
13	0x3f7b0bd1	0.98064905
14	0x3f7697e1	0.963255
15	0x3f7de9dc	0.99184966
16	0x3f8ca33d	1.0987316
17	0x3f815702	1.0104678
18	0x3f73a336	0.95170915
19	0x3f8f3482	1.1187899
20	0x3f7552ac	0.9582927
21	0x3f775304	0.96611047
22	0x3f7be0f0	0.983901
23	0x3f628c28	0.8849511
24	0x3f870d77	1.0550984
25	0x3f83fb38	1.0311041
26	0x3f6acf74	0.917228
27	0x3f7cafe9	0.9870592
28	0x3f58122d	0.84402734
29	0x3f98ee9e	1.194782
30	0x3f847951	1.0349523
31	0x3f745610	0.9544382
32	0x3f52e76e	0.82384384
33	0x3f8a5544	1.0807271
34	0x3f820f9c	1.0161014
35	0x3f805971	1.0027295
36	0x3f81dbe8	1.0145235
37	0x3f83695b	1.0266527
38	0x3f876b13	1.0579551
39	0x3f8c3212	1.095278
40	0x3f75ce2a	0.96017706
41	0x3f7ef13d	0.9958685
42	0x3f82fa9c	1.023273
43	0x3f6d426a	0.92679465
44	0x3f92affc	1.1459956
45	0x3f4ef4ee	0.80842483
46	0x3f6c1bd0	0.9222994
47	0x3fb6fe1f	1.4296302
48	0x3f80b63b	1.0055612
49	0x3f4345cb	0.7627837
50	0x3f81feea	1.0155919
51	0x3f8f4043	1.1191486
52	0x3f5535e3	0.8328535
53	0x3f593960	0.8485317
54	0x3f797518	0.97444296
55	0x3f3993ad	0.7249096
56	0x3f685a27	0.9076256
57	0x3f57175a	0.84020007
58	0x3f71937f	0.94365686
59	0x3f510cbf	0.81660074
60	0x3f68f3f6	0.90997255
61	0x3f7ee2b3	0.99564666
62	0x3fa5d68b	1.2956098
63	0x3f87804e	1.058603

conv1.2.bias f4 [64]
0	0xbe938d34	-0.28818667
1	0xbe4bd1ae	-0.19904205
2	0xbe134065	-0.14380033
3	0xbecec6c1	-0.40386012
4	0xbe9cfeac	-0.3066305
5	0xbe821053	-0.2540308
6	0xbe4fd59a	-0.20296326
7	0xbe3b01fd	-0.18262477
8	0xbe4c3e5b	-0.19945662
9	0xbe13d267	-0.14435731
10	0xbe33f802	-0.17575076
11	0xbe6a2ceb	-0.22868697
12	0xbd5c097a	-0.053719975
13	0xbe4c21c1	-0.19934751
14	0xbe8ae377	-0.27126667
15	0xbe877668	-0.26457524
16	0xbea6017a	-0.32423002
17	0xbebadadd	-0.36495104
18	0xbed3bb27	-0.41353723
19	0xbd3934c0	-0.045216322
20	0xbe855f64	-0.2604934
21	0xbe4449fc	-0.19168848
22	0xbeb506af	-0.35356662
23	0xbd883536	-0.06650774
24	0xbe32eaa2	-0.17472318
25	0xbe2ff61e	-0.1718373
26	0xbe7cd486	-0.24690446
27	0xbeb01d7f	-0.34397504
28	0xbde8baab	-0.11363729
29	0xbbf4d8a0	-0.007472113
30	0xbdc26c38	-0.09493297
31	0xbe123c4a	-0.14280811
32	0x3b817160	0.003950283
33	0xbe7b74df	-0.24556302
34	0xbe57453d	-0.21022506
35	0xbeebaa26	-0.4602825
36	0xbe82e6cc	-0.2556671
37	0xbe6c67c9	-0.23086466
38	0xbeb611e4	-0.35560524
39	0xbe40f730	-0.18844295
40	0xbed47e40	-0.4150257
41	0xbe4ff981	-0.20310022
42	0xbed08c1e	-0.407319
43	0xbef1b655	-0.4720942
44	0xbe65789b	-0.22409289
45	0xbd3adf3b	-0.045623045
46	0xbc949678	-0.018138155
47	0xbdc4c1a6	-0.09607248
48	0xbd6876ec	-0.056754038
49	0xbe26535c	-0.16242737
50	0xbeb4fb9d	-0.35348216
51	0xbd9bf9cb	-0.076160036
52	0xbe071ce5	-0.13194616
53	0xbdf23f29	-0.11828453
54	0xbec94e8f	-0.39317748
55	0xbda1a195	-0.078921475
56	0x3cd24f15	0.025672475
57	0xbea5906c	-0.32336748
58	0xbe637c6d	-0.22215433
59	0xbdbc887a	-0.09205718
60	0xbedb1213	-0.42787227
61	0xbf07aec8	-0.5300107
62	0xbdd6c2ed	-0.10486398
63	0xbe7753b3	-0.24153022

conv1.2.running_mean f4 [64]
0	0xb9b56765	-0.00034600045
1	0x39cb64e5	0.0003879435
2	0xb881cf80	-6.189849e-05
3	0xb9c40ad1	-0.00037392092
4	0xb9210f14	-0.00015359774
5	0xb9480b36	-0.00019077663
6	0x39be7f9b	0.00036334698
7	0x38d57b07	0.00010179547
8	0x3919ac8b	0.00014655494
9	0x38b2d282	8.5269116e-05
10	0xb736e3a9	-1.0901052e-05
11	0x39573add	0.00020525926
12	0x3a6285d4	0.0008641158
13	0x37f33ec2	2.8997081e-05
14	0x39c0d2dc	0.00036778196
15	0xb86fc311	-5.716371e-05
16	0xb83c7afc	-4.493723e-05
17	0xb9957f05	-0.00028514132
18	0xb9b9a0f7	-0.00035405878
19	0xb8680adf	-5.5323235e-05
20	0x39ad45d1	0.0003304915
21	0x3925f40c	0.00015826541
22	0xb9ffcbfc	-0.0004878937
23	0x39513782	0.00019952471
24	0x3982e4fb	0.00024966136
25	0xba9befba	-0.0011897006
26	0x393ef5a1	0.00018211316
27	0xba1acfef	-0.00059056183
28	0xb96b3e53	-0.00022434564
29	0xb78303b6	-1.5618145e-05
30	0xbaaf7128	-0.0013385164
31	0x37897c9f	1.6389704e-05
32	0x3a57d516	0.00082333514
33	0x388760c2	6.455324e-05
34	0x393a9010	0.0001779201
35	0xb9cd26a8	-0.00039129448
36	0x37519014	1.2490917e-05
37	0x39013fe4	0.000123262
38	0xb9165c0c	-0.00014339405
39	0x382924b0	4.0326908e-05
40	0x39358981	0.0001731273
41	0xb8cbfc8a	-9.7268334e-05
42	0xb889d359	-6.5720356e-05
43	0xb9a4b647	-0.00031416325
44	0x360c2b6c	2.08869e-06
45	0x3a04bcc5	0.0005063529
46	0x3772c101	1.4469261e-05
47	0xb7e03324	-2.6726695e-05
48	0xb80abfdf	-3.3080458e-05
49	0x39f10bfb	0.00045976028
50	0xb92e380b	-0.00016614811
51	0x3831a90f	4.2357537e-05
52	0x3a294236	0.00064567046
53	0xba041113	-0.00050379446
54	0xb9e95223	-0.0004450242
55	0x38aac61b	8.143132e-05
56	0x3a9fc28d	0.0012188718
57	0xb9afdc1d	-0.00033542598
58	0xb9225ba1	-0.00015483658
59	0xb83c8d57	-4.4954326e-05
60	0xb92da7a3	-0.00016561015
61	0x39cc0146	0.0003891086
62	0x387cac0c	6.0241713e-05
63	0x381a0a75	3.67262e-05

conv1.2.running_var f4 [64]
0	0x378adde5	1.655421e-05
1	0x37a64502	1.9820876e-05
2	0x37a8e67d	2.013449e-05
3	0x378379bc	1.5673104e-05
4	0x37a70dbf	1.9914352e-05
5	0x37c270bd	2.31791e-05
6	0x37b8ccd4	2.202989e-05
7	0x37aa72ff	2.0319128e-05
8	0x376049ed	1.3368653e-05
9	0x37a383a7	1.949242e-05
10	0x372dcb8c	1.03589955e-05
11	0x37921fff	1.7419456e-05
12	0x38460ea9	4.7220532e-05
13	0x37569c1c	1.2791741e-05
14	0x37de726f	2.651775e-05
15	0x37586c71	1.2899852e-05
16	0x3782d1ed	1.5594962e-05
17	0x37c48c73	2.3430423e-05
18	0x37b1dd2d	2.1203037e-05
19	0x37a4acfe	1.963088e-05
20	0x381e5aff	3.7754882e-05
21	0x3762c58f	1.3516647e-05
22	0x38057a4c	3.182357e-05
23	0x373eb78d	1.1367619e-05
24	0x378c77f1	1.6745153e-05
25	0x38abc85d	8.191236e-05
26	0x37975034	1.803795e-05
27	0x37d5e211	2.5496849e-05
28	0x385fc67a	5.335219e-05
29	0x37decba7	2.6559295e-05
30	0x38c776fa	9.5112206e-05
31	0x38c42d5e	9.3544586e-05
32	0x3831bf22	4.2378095e-05
33	0x37bdbf8d	2.2619754e-05
34	0x375f3f06	1.330651e-05
35	0x379539fe	1.7789189e-05
36	0x37afa865	2.094004e-05
37	0x37a48ce6	1.9615934e-05
38	0x37a23301	1.9335655e-05
39	0x3758d831	1.2924939e-05
40	0x373def5e	1.132101e-05
41	0x3773cac9	1.4531143e-05
42	0x3766974b	1.3744294e-05
43	0x3778c10d	1.48269e-05
44	0x374b51ba	1.2118771e-05
45	0x387c24b0	6.011565e-05
46	0x38aa979a	8.13447e-05
47	0x37f75902	2.9486142e-05
48	0x374d7c4a	1.22478905e-05
49	0x37ca0a3c	2.4085042e-05
50	0x378c2115	1.6704706e-05
51	0x377fa55b	1.5237684e-05
52	0x3845f061	4.719233e-05
53	0x38265e0b	3.966507e-05
54	0x380703bb	3.2189982e-05
55	0x3848c965	4.787128e-05
56	0x38ab4726	8.167168e-05
57	0x378b81cf	1.6630538e-05
58	0x377d42b2	1.5095504e-05
59	0x3858473c	5.1564755e-05
60	0x375c6874	1.3137342e-05
61	0x37b4e980	2.1566404e-05
62	0x37cd2a36	2.445756e-05
63	0x3779873c	1.4873043e-05

conv2.0.weight f4 [64, 64, 5]
0	0x3df668c3	0.120317005
1	0x3bb07a5d	0.0053856806
2	0x3d96907c	0.07351777
3	0x3de9164f	0.11381208
4	0xbf376a15	-0.71646243
5	0xbca031c7	-0.019554986
6	0x3df31cfb	0.11870762
7	0x3dff45ee	0.1246451
8	0x3c930a53	0.017949259
9	0x3e40b53e	0.18819138
10	0x3e8ee8af	0.27911898
11	0x3d55092d	0.052010704
12	0x3da27292	0.07932009
13	0xbd9a3263	-0.07529142
14	0xbc24cfa9	-0.010059276
15	0xbca7aeb2	-0.020469043
16	0x3dddd53e	0.10831688
17	0x3e402e55	0.18767674
18	0xbd0e5b1e	-0.034754865
19	0xbeb320dc	-0.34986007
20	0xbe4ba331	-0.19886471
21	0xbe10cf8a	-0.1414167
22	0x3b945ce5	0.0045276755
23	0xbdccd6fe	-0.10001944
24	0x3e1df67f	0.15426062
25	0x3e8ca7c5	0.27471748
26	0x3e21ea6f	0.15812086
27	0x3cb95b29	0.022626476
28	0x3dba021b	0.09082433
29	0xbc36fb4d	-0.011168313
30	0x3e938ebc	0.28819835
31	0x3da95676	0.08268444
32	0x3db8bdcc	0.09020576
33	0x3dd890d7	0.10574501
34	0x3d68bb6d	0.05681937
35	0xbc7f3fef	-0.015579208
36	0x3d5d4a14	0.054025725
37	0xbb5f6208	-0.003408553
38	0x3cdc0d0f	0.026861696
39	0x3e66937e	0.22517201
40	0x3d9a7000	0.075408936
41	0x3e4a4a40	0.19754887
42	0x3d9cd5a9	0.0765794
43	0x3df4db66	0.119559094
44	0xbd16c567	-0.03680935
45	0xbd0e14ee	-0.03468793
46	0xbe2e22d0	-0.17005467
47	0x3d6142c7	0.054995324
48	0x3dd4fecf	0.104001634
49	0x3e24e9d8	0.1610483
50	0x3dd51acc	0.10405502
51	0xbd8ef6cb	-0.06980666
52	0xbe519349	-0.20466341
53	0xbda5d2d7	-0.08096855
54	0xbe6f06a3	-0.23342375
55	0x3dcb137b	0.09915825
56	0x3d172e8a	0.036909617
57	0x3da806e7	0.082044415
58	0x3dba8afd	0.09108541
59	0x3dd6eb4e	0.104940996
60	0x3e98dc7b	0.29855713
61	0x3e961db2	0.2931953
62	0x3e0f3adf	0.13987301
63	0x3eb6f3fd	0.35733023
64	0x3e5ee18d	0.21765728
65	0x3c7ff50d	0.0156223895
66	0x3cdaf18d	0.026726509
67	0xbe0ffc52	-0.14061096
68	0xbd9ddc18	-0.07707995
69	0xbd8fe377	-0.07025807
70	0x3dea499a	0.1143982
71	0x3b34103a	0.0027475492
72	0x3deb0bbc	0.114768475
73	0x3d19bff0	0.03753656
74	0xbc7da5f2	-0.015481459
75	0x3e8bab56	0.27279156
76	0xbe439752	-0.19100693
77	0x3bde49d2	0.0067837024
78	0xbc6457d8	-0.013936959
79	0xbca4d457	-0.020120783
80	0xbe0be4ba	-0.13661471
81	0xbdb24c38	-0.08705944
82	0x3d73cd99	0.059522245
83	0xbe805b19	-0.25069502
84	0xbe46bf4e	-0.19408914
85	0x3d8eac20	0.06966424
86	0xbe32b115	-0.17450364
87	0xbe9a9ff0	-0.30200148
88	0xbe463668	-0.19356692
89	0xbe8b9245	-0.27260032
90	0xbd18d27d	-0.037310112
91	0xbec9d7c3	-0.39422426
92	0x3d97dbf2	0.07414998
93	0x3e00058f	0.1250212
94	0x3d8503ef	0.06494891
95	0x3de54a20	0.11195779
96	0x3ca742f5	0.02041767
97	0xbd72f40b	-0.05931477
98	0x3dcdf961	0.10057331
99	0xbd82b24b	-0.06381663
100	0x3de32732	0.1109146
101	0xbcc6cd58	-0.024267837
102	0xbd9782aa	-0.07397969
103	0xbdfd99f6	-0.12382881
104	0x3e0e6d2d	0.13908835
105	0xbd771fc8	-0.060333043
106	0xbde4cc67	-0.11171799
107	0xbe3aab4b	-0.18229406
108	0x3dd32892	0.103104725
109	0xbda1afd4	-0.07894865
110	0xbe22cefc	-0.15899271
111	0xbda8df6a	-0.08245738
112	0xbe93ebc6	-0.28890818
113	0xbea43ce1	-0.32077697
114	0xbebaaf0e	-0.3646168
115	0x3c9fb4d6	0.019495409
116	0xbd607028	-0.05479446
117	0x3bc0fdbc	0.0058896225
118	0x3e9e23d2	0.30886704
119	0x3e56f89f	0.20993279
120	0x3e0d32ff	0.13788985
121	0xbe0c31f0	-0.13690925
122	0x3d92f5da	0.07175799
123	0x3e042da8	0.12908041
124	0xbe44c37a	-0.19215193
125	0xbec9b20b	-0.39393649
126	0xbe1873ef	-0.14887975
127	0xbdc6ab7f	-0.09700679
128	0x3dc28549	0.094980784
129	0xbd4139ad	-0.047174145
130	0x3d11ebd9	0.035625312
131	0x3db44bf8	0.088035524
132	0x3df418a0	0.11918759
133	0x3da97764	0.08274725
134	0x3db62e25	0.0889552
135	0xbe135e78	-0.14391506
136	0x3e2fd99a	0.17172852
137	0xbe3845bb	-0.1799535
138	0xbe09a173	-0.13440494
139	0xbdd4ab35	-0.10384218
140	0xbd796665	-0.060888667
141	0x3cb7319b	0.02236252
142	0x3d5b1b32	0.053492732
143	0x3d787879	0.060661767
144	0xbde174e2	-0.11008622
145	0x3d6901b4	0.05688639
146	0xbbddbdaf	-0.006766997
147	0x3d2b1983	0.041772377
148	0x3d474f00	0.048659325
149	0x3e830733	0.2559143
150	0xbea82d9a	-0.3284729
151	0xbe0ffca4	-0.14061219
152	0xbe243354	-0.16035205
153	0xbdd262e4	-0.10272768
154	0xbe9e14a9	-0.30875137
155	0x3d477586	0.048696063
156	0x3e2395fb	0.15975182
157	0x3dd52ecd	0.10409317
158	0x3dfe179a	0.124068454
159	0x3bf89eea	0.0075873034
160	0x3e4fc17b	0.2028865
161	0x3e39eb6f	0.18156217
162	0x3e519b0a	0.20469299
163	0x3e2b5106	0.16730127
164	0x3dfc8384	0.12329772
165	0x3db5fa12	0.08885588
166	0xbdc57c4b	-0.096428476
167	0xbe2bc34d	-0.1677372
168	0xbca29ab3	-0.019849157
169	0xbe97a98b	-0.2962154
170	0x3da3ba3b	0.07994505
171	0xbda68cb0	-0.08132303
172	0x3e3b8d73	0.18315677
173	0x3e33b124	0.17548043
174	0x3e083c2e	0.13304207
175	0x3bb0dd64	0.0053974856
176	0xb8da4bef	-0.00010409194
177	0xbdf67754	-0.12034479
178	0x3e015a0d	0.12632008
179	0xbea1a5a7	-0.31571695
180	0x3dcab9b6	0.09898703
181	0xbdcc9ce6	-0.099908635
182	0x3d557db9	0.05212185
183	0x3c6545a4	0.013993654
184	0xbd3d255d	-0.04617821
185	0x3dc7002f	0.09716832
186	0x3e2bdf64	0.16784436
187	0x3e3bcf0a	0.18340698
188	0xbd0426d5	-0.032263596
189	0x3de2d8bd	0.11076496
190	0xbc382951	-0.011240319
191	0xbe13e82c	-0.14444035
192	0x3c082458	0.008309446
193	0xbc82382f	-0.015895931
194	0xbe0c0ae2	-0.13676026
195	0xbe3d256e	-0.1847131
196	0x3e429b1f	0.19004487
197	0x3e40d377	0.18830667
198	0xbd665388	-0.056232005
199	0x3e32bb4a	0.17454258
200	0xbcb1e61d	-0.021716172
201	0xbd374373	-0.04474206
202	0x3b7fa893	0.003901039
203	0x3db8d2b7	0.09024566
204	0xbd9e63b4	-0.077338606
205	0x3e2d26f3	0.16909389
206	0xbc683bd4	-0.01417442
207	0x3de24da7	0.11049967
208	0x3e391ec5	0.18078144
209	0x3e22b0c3	0.15887742
210	0xbddd810a	-0.10815628
211	0xbe0cc2d5	-0.13746198
212	0xbe4cf4c7	-0.2001525
213	0xbe7f895b	-0.2495474
214	0xbf122539	-0.5708805
215	0xbc636d6a	-0.013881067
216	0xbd1b9d84	-0.037992015
217	0xbda18a4e	-0.07887708
218	0xbe97cc5c	-0.296481
219	0xbebea360	-0.3723402
220	0x3e245d16	0.16051134
221	0xbe8d7e98	-0.27635646
222	0xbc72355d	-0.014783231
223	0xbdf9936b	-0.12186321
224	0x3e1934b0	0.14961505
225	0x3d5b0d8b	0.053479712
226	0x3d3739cd	0.044732857
227	0x3e0a57a6	0.13509998
228	0x3e36e92d	0.17862387
229	0x3d74a78e	0.059730105
230	0x3d7ab435	0.061207015
231	0x3e07139c	0.13191074
232	0x3e1fda45	0.15610607
233	0x3d82deb3	0.06390133
234	0x3dd1e046	0.10247855
235	0xbd82911a	-0.06375332
236	0xbe1e5aba	-0.15464297
237	0xbcfb1935	-0.030651668
238	0x3d0c8ef7	0.03431603
239	0x3e2e9a9e	0.1705117
240	0xbe11db1b	-0.14243738
241	0xbe9a439a	-0.301297
242	0x3e05003d	0.12988372
243	0xbe179f72	-0.14806917
244	0x3df39c8d	0.11895094
245	0x3e28e8de	0.16495082
246	0x3d98564a	0.07438333
247	0xbd3383fe	-0.04382705
248	0x3d595106	0.053055786
249	0xbd5061e9	-0.050874624
250	0xbd14b639	-0.036306594
251	0xbdb2ebe5	-0.087363996
252	0x3d5b37d2	0.05352003
253	0xbdbbae0a	-0.09164055
254	0xbcada715	-0.021197835
255	0x3a648cf1	0.00087185117

conv2.1.weight f4 [64]
0	0x3f766938	0.962543
1	0x3f6f125c	0.9338739
2	0x3f703cda	0.9384285
3	0x3f81ec88	1.0150309
4	0x3f88c26d	1.0684334
5	0x3f8608c1	1.0471421
6	0x3f619f74	0.8813393
7	0x3f991958	1.1960859
8	0x3f7febe1	0.999693
9	0x3f788610	0.97079563
10	0x3f7b9e6f	0.98288625
11	0x3f7be030	0.9838896
12	0x3f594849	0.84875923
13	0x3f828494	1.019671
14	0x3f637a0f	0.8885812
15	0x3f7fa094	0.998544
16	0x3f9410c7	1.156762
17	0x3f8ad2ad	1.0845543
18	0x3f727822	0.9471456
19	0x3f798f5a	0.9748436
20	0x3fa631cb	1.2983946
21	0x3f6f30d3	0.93433875
22	0x3f7acf8d	0.9797295
23	0x3f7de632	0.99179375
24	0x3f7904fc	0.9727323
25	0x3f6f0884	0.9337237
26	0x3f83091b	1.0237154
27	0x3f8d1335	1.1021487
28	0x3f87602a	1.0576222
29	0x3f691b3b	0.91057175
30	0x3f6c6be2	0.92352116
31	0x3f6f0b04	0.93376184
32	0x3f868da3	1.0511974
33	0x3f8eae0d	1.1146866
34	0x3f863fea	1.0488255
35	0x3f964a77	1.1741475
36	0x3f8f6606	1.120301
37	0x3f8010d4	1.0005136
38	0x3f78113b	0.9690129
39	0x3f8bf334	1.0933595
40	0x3f873fd9	1.056636
41	0x3f83749e	1.0269964
42	0x3f907971	1.1287061
43	0x3f87e688	1.0617228
44	0x3f89f6c6	1.0778434
45	0x3f8509ef	1.0393656
46	0x3fa04444	1.2520833
47	0x3f9b9a5f	1.2156485
48	0x3fa94d1c	1.3226657
49	0x3f8346c8	1.0255976
50	0x3f7802a6	0.9687904
51	0x3f65a7df	0.89709276
52	0x3f82ef7d	1.0229336
53	0x3f781c5f	0.9691829
54	0x3f783e38	0.9696994
55	0x3f8a753a	1.0817025
56	0x3f8a08e8	1.0783968
57	0x3f727b14	0.9471905
58	0x3f850f51	1.0395299
59	0x3f5d2353	0.86382025
60	0x3f73afcc	0.9519012
61	0x3f52e719	0.8238388
62	0x3f7d23fb	0.98883027
63	0x3f9f30ce	1.2436769

conv2.1.bias f4 [64]
0	0xbdacbd49	-0.08434541
1	0xbe4c423d	-0.19947143
2	0xbdc7e70e	-0.09760867
3	0xbda1ec31	-0.07906378
4	0xbde2d8bc	-0.11076495
5	0xbe24ef5d	-0.16106935
6	0xbe5acfc6	-0.21368322
7	0xbdf98f4b	-0.12185534
8	0xbe090350	-0.1338017
9	0xbe63a7f2	-0.22232035
10	0xbd91c9bd	-0.07118557
11	0xbe34604f	-0.17614864
12	0xbe18b1e5	-0.14911611
13	0xbdfb1284	-0.12259391
14	0xbe2a1cea	-0.16612592
15	0xbd99bd16	-0.075067684
16	0xbe1475cf	-0.14498065
17	0x3db367d7	0.0876004
18	0xbdf5a481	-0.11994267
19	0xbe172128	-0.14758742
20	0xbe435b36	-0.19077763
21	0xbe395e7a	-0.18102446
22	0xbe5bce5e	-0.21465442
23	0xbe69bff9	-0.22827138
24	0x3c1ad8f7	0.0094511425
25	0xbdfe62b6	-0.12421171
26	0xbcdf2cb0	-0.027242988
27	0x3cb1a8e8	0.021686986
28	0xbe478e17	-0.19487797
29	0xbe6496c2	-0.22323135
30	0xbe26e0e5	-0.16296728
31	0xbdef60af	-0.11688363
32	0xbdba142e	-0.0908588
33	0xbe0b04b8	-0.13576019
34	0xbdae97a5	-0.08525018
35	0xbe1e660f	-0.1546862
36	0xbe60b431	-0.21943738
37	0xbe02d5d0	-0.12776875
38	0xbe05a1ff	-0.13050078
39	0xbdc78e9f	-0.09744
40	0xbda12e97	-0.078702144
41	0xbe40f16f	-0.188421
42	0xbe51a93a	-0.20474711
43	0xbe0233de	-0.12715098
44	0xbe0b2951	-0.1358998
45	0xbe40b4f7	-0.18819033
46	0xbe535bc1	-0.2064047
47	0xbb09f7c7	-0.0021052228
48	0xbdb255ae	-0.08707748
49	0xbd728608	-0.059209853
50	0xbe1e16ae	-0.15438339
51	0xbe1937b0	-0.1496265
52	0xbdeb9d3a	-0.11504598
53	0xbe37ec6e	-0.17961285
54	0xbe281c3c	-0.1641702
55	0xbe0ccbc3	-0.13749604
56	0xbd8f1be2	-0.0698774
57	0xbe7f8b44	-0.2495547
58	0xbdcdab83	-0.10042479
59	0xbe9e5807	-0.30926535
60	0xbdfcafa0	-0.12338185
61	0xbe772a0c	-0.24137133
62	0xbe6f7dfe	-0.23387906
63	0xbe123c04	-0.14280707

conv2.1.running_mean f4 [64]
0	0x3f9a9d22	1.2079203
1	0x3f99fcf3	1.2030319
2	0xc02b32b6	-2.6749701
3	0x3fef68c6	1.8703849
4	0x3e8484f8	0.25882697
5	0xbf884c6b	-1.0648321
6	0x3ea7842d	0.3271803
7	0x40a9eba6	5.3100157
8	0x3faaaa5b	1.3333238
9	0x3f84c8d5	1.0373789
10	0x3f9abb71	1.2088453
11	0xbe46be2a	-0.1940848
12	0xbd1caa44	-0.038248315
13	0xbe9f82ad	-0.31154385
14	0x3ebf6904	0.37384808
15	0x3fa9fdeb	1.3280615
16	0xbf070a49	-0.5275007
17	0xc0ae5c79	-5.448788
18	0xbf92bd9a	-1.1464112
19	0xbf4875c4	-0.78304696
20	0xbde24f70	-0.11050308
21	0x3fdad370	1.7095776
22	0xbe63bb02	-0.22239307
23	0xbe8ffdb7	-0.28123257
24	0xc015e624	-2.3421717
25	0x3f1d568d	0.6146019
26	0xc0a79075	-5.236384
27	0xc0b8fd13	-5.780893
28	0x3fbb847f	1.464981
29	0x40203835	2.5034306
30	0x3e8788b1	0.26471475
31	0x40411d92	3.0174298
32	0xbf35e6f4	-0.7105553
33	0x3f90acb6	1.1302707
34	0xc02cbc10	-2.6989784
35	0xbfaae253	-1.3350319
36	0xbfcb8f6a	-1.5903141
37	0xc04740f7	-3.1133401
38	0x3f1d041b	0.6133439
39	0xbf38bdee	-0.7216481
40	0x3fa6a281	1.3018342
41	0xbf865aab	-1.049642
42	0x3ea6de0d	0.32591286
43	0xbf00f998	-0.5038085
44	0xbed282b5	-0.41115347
45	0x3f88db9e	1.0692022
46	0xbe6dbc10	-0.23216271
47	0x3ee3a10b	0.44458804
48	0x3fed967f	1.8561553
49	0xc09499bd	-4.643767
50	0x3e9b899d	0.30378428
51	0x3fea71d1	1.8315984
52	0xbc124279	-0.008926981
53	0x3f964ebe	1.174278
54	0xc011fc08	-2.2810078
55	0x40a8d38b	5.275823
56	0xbf9ec70f	-1.2404498
57	0x3f8f23ab	1.118276
58	0xbee6a032	-0.45044094
59	0xbf933b8c	-1.1502547
60	0x3ed09e00	0.40745544
61	0x3fd37bf2	1.65222
62	0x3ee91959	0.4552715
63	0x404ee481	3.2326968

conv2.1.running_var f4 [64]
0	0x4115a131	9.351853
1	0x41134d3e	9.206358
2	0x40440830	3.0629997
3	0x40bb7465	5.8579583
4	0x414bd8ff	12.740478
5	0x4109c1f0	8.609848
6	0x411fb7bf	9.98236
7	0x408038d3	4.0069366
8	0x413768c9	11.463082
9	0x40c74b78	6.2279625
10	0x40aafa13	5.3430266
11	0x4080a6e2	4.0203714
12	0x415d3cd3	13.82735
13	0x407acb4b	3.918658
14	0x415a9f6d	13.663922
15	0x41465cea	12.397684
16	0x40def350	6.967201
17	0x4083d8ac	4.120199
18	0x4133b704	11.232182
19	0x417f1168	15.94175
20	0x408df7b6	4.436488
21	0x4095348b	4.662664
22	0x40e0eccb	7.0289054
23	0x40606e66	3.5067382
24	0x40398630	2.8988152
25	0x4160e518	14.055931
26	0x40c42258	6.1291924
27	0x4092f449	4.59232
28	0x40b2790f	5.5772777
29	0x40a7effe	5.248046
30	0x4092b724	4.584856
31	0x407bf190	3.9366188
32	0x402677c2	2.6010594
33	0x40f4f966	7.655444
34	0x4089c9a5	4.305865
35	0x4066ae55	3.6043904
36	0x41003e32	8.015184
37	0x4083d4ea	4.1197405
38	0x405f724c	3.4913511
39	0x401a6f95	2.4130604
40	0x411c197a	9.75622
41	0x41192f15	9.573995
42	0x410313d0	8.192337
43	0x4098b884	4.772524
44	0x4072eb3f	3.7956083
45	0x404041c3	3.0040138
46	0x40e2473e	7.0711966
47	0x40a64285	5.19562
48	0x40798b1a	3.899115
49	0x40b3d604	5.619875
50	0x410a22c3	8.633487
51	0x408c17ff	4.377929
52	0x41386586	11.524786
53	0x401e82fc	2.4767447
54	0x409f813c	4.9845257
55	0x4092cc8e	4.58747
56	0x40192d0a	2.393374
57	0x40e9762f	7.2956767
58	0x4131509a	11.082178
59	0x40f668f1	7.70031
60	0x41184439	9.516656
61	0x411e25fb	9.884273
62	0x40ea6660	7.324997
63	0x408bde04	4.3708515

levels.level_0.wavelet.P.operator.1.weight f4 [64, 64, 3]
0	0xbe8a5bbb	-0.2702311
1	0xbe5b6ded	-0.21428652
2	0xbe699d35	-0.22813876
3	0xbdc854f9	-0.09781832
4	0xbe47fb1c	-0.19529384
5	0xbe6b2f6b	-0.22967307
6	0xbda37127	-0.079805665
7	0x3d7024c4	0.058628812
8	0xba224e43	-0.00061914715
9	0x3c3a11ca	0.01135678
10	0x3ce0f1c6	0.027459037
11	0x3e14bc10	0.14524865
12	0xbdb5c942	-0.088762775
13	0xbddc34c4	-0.10752252
14	0xbdf00f2e	-0.11721645
15	0x3db5ae2c	0.08871111
16	0x3d9a59bd	0.075366475
17	0x3cf3ad64	0.029745765
18	0xbdc1d7e1	-0.09465004
19	0xbdf8324a	-0.12118967
20	0xbe0870b3	-0.13324241
21	0xbe26fc9a	-0.16307297
22	0xbe7d19c7	-0.24716865
23	0xbe03434a	-0.12818637
24	0xbe201c41	-0.15635778
25	0xbe719227	-0.23590909
26	0xbe82cc61	-0.25546554
27	0xbdffb729	-0.12486107
28	0xbdaaa26f	-0.08331763
29	0xbe0baca2	-0.13640073
30	0xbe067d74	-0.13133794
31	0xbeb9e340	-0.3630619
32	0xbeed6388	-0.46365
33	0x3e3b6fc0	0.18304348
34	0x3e06e5f2	0.13173655
35	0x3e1323eb	0.1436917
36	0x3c7650b2	0.015033888
37	0xbea22f3f	-0.3167667
38	0xbe9a0c97	-0.3008773
39	0x3e81358b	0.25236163
40	0x3dee4210	0.11633694
41	0x3e003858	0.12521493
42	0xbdb9a270	-0.090641856
43	0xbc1cfc18	-0.009581588
44	0xbe738903	-0.23782735
45	0xbdd20d1c	-0.10256407
46	0xbe3e2526	-0.18568859
47	0xbdbc9bd2	-0.09209408
48	0xbe0c9a0a	-0.13730636
49	0xbde18366	-0.110113904
50	0xbdf89230	-0.12137258
51	0xbda8d2d8	-0.0824334
52	0xbe440f39	-0.19146432
53	0xbe60086d	-0.21878214
54	0xbdc782c5	-0.09741739
55	0xbe0f7987	-0.14011203
56	0xbdfaaf69	-0.12240488
57	0xbe20fe51	-0.15722014
58	0xbe85348f	-0.26016662
59	0xbe361dbf	-0.17784785
60	0x3c41f65a	0.01183852
61	0x3d7122ae	0.058870964
62	0x3d62301b	0.05522166
63	0x3b4130c8	0.0029478539
64	0x3d5a704c	0.05332975
65	0xbce0b4db	-0.027429989
66	0x3d9c6dae	0.07638107
67	0xbcf266e2	-0.029590074
68	0xbd2bdd56	-0.04195913
69	0x3e8cfd2a	0.275369
70	0x3e243a15	0.16037782
71	0x3e03ccd7	0.12871109
72	0xbe3c5e13	-0.18395261
73	0x3af84052	0.0018940067
74	0xbc182712	-0.009286659
75	0xbe88155d	-0.265788
76	0xbeb2960d	-0.34880105
77	0xbf1108af	-0.56653875
78	0xbe972ce8	-0.29526448
79	0xbe6703b7	-0.22560011
80	0xbe91e527	-0.28495142
81	0xbd51bf7f	-0.051208016
82	0xbdfc5c64	-0.123223096
83	0x3cd81d7e	0.02638125
84	0xbd1bfeb7	-0.038084712
85	0xbca11f92	-0.019668374
86	0xbd41a121	-0.047272805
87	0xbe3ea487	-0.1861745
88	0xbda52a77	-0.0806474
89	0xbde4fd7c	-0.11181161
90	0x3cdd14cf	0.026987461
91	0xbe2b5c58	-0.16734445
92	0xbd23ecc9	-0.040020738
93	0x3ca30292	0.019898687
94	0x3dd74a15	0.10512177
95	0x3c2816b8	0.010259323
96	0x3e6f4c1e	0.2336888
97	0x3e2f517d	0.17120929
98	0x3e6e93f6	0.2329863
99	0xbdc9aa94	-0.09846988
100	0xbdefa451	-0.11701263
101	0xbe043987	-0.1291257
102	0xbe1c5a8a	-0.15268913
103	0xbe984cf4	-0.2974621
104	0xbe29b41c	-0.16572613
105	0xbe52cafb	-0.20585243
106	0xbe39c121	-0.18140079
107	0xbe2c4016	-0.16821322
108	0x3d8a5009	0.06753547
109	0x3c59d5f0	0.013295636
110	0x3cbda0ea	0.023148019
111	0xbdf8cbd4	-0.12148252
112	0xbe292fec	-0.16522187
113	0xbe3e2a29	-0.1857077
114	0xbd5a1991	-0.05324704
115	0x3ca18cab	0.019720396
116	0x3cbc1813	0.022960698
117	0xbb87fcfa	-0.00415003
118	0xbe05d904	-0.13071066
119	0xbdafb600	-0.085796356
120	0xbd22ee2a	-0.039777912
121	0xbdb3d1de	-0.08780263
122	0xbe1a36d3	-0.15059976
123	0x3db6181c	0.08891317
124	0x3bdade40	0.0066793263
125	0xbcd47eee	-0.025939431
126	0xbdffdcc5	-0.1249328
127	0xbe75cad5	-0.24003156
128	0xbe64e840	-0.22354221
129	0xbea77ef9	-0.3271406
130	0xbe50aef6	-0.20379242
131	0xbe5b8383	-0.21436886
132	0xbe3377b4	-0.17526132
133	0xbe90c95f	-0.28278634
134	0xbe85dd70	-0.26145506
135	0x3ea6672c	0.3250059
136	0x3e1108cd	0.14163513
137	0x3e5bee33	0.21477585
138	0xbab321f9	-0.0013666741
139	0x3b049bed	0.002023454
140	0x3c9e508b	0.019325515
141	0xbe615fcb	-0.22009198
142	0x3c0819d3	0.008306938
143	0x3c8b787b	0.017025223
144	0xbedab92c	-0.427194
145	0xbe906a13	-0.28205928
146	0xbdf9fe48	-0.122067034
147	0xbe27a4f6	-0.16371521
148	0xbe9bd5ac	-0.30436456
149	0xbe473327	-0.19453107
150	0xbe14f09c	-0.1454491
151	0xbdb0550a	-0.0860997
152	0xbccca105	-0.024979124
153	0xbdb19d1f	-0.086725466
154	0xbd0a273d	-0.033728827
155	0xbd801591	-0.062541135
156	0x3ca9be86	0.020720731
157	0x3cef3cce	0.029203799
158	0xbd2efc6e	-0.042721204
159	0xbd06dcf7	-0.032925572
160	0xbdedb8f9	-0.11607546
161	0xbe0a7535	-0.13521273
162	0x3dbacb95	0.091208614
163	0x3e0f2b22	0.13981298
164	0x3e180c75	0.14848502
165	0xbb1693fc	-0.002297639
166	0xbd1de27e	-0.038546078
167	0xbe86c0a5	-0.2631885
168	0xbccd9dd9	-0.025099682
169	0xbd5a7b77	-0.0533404
170	0xbe1ba848	-0.15200913
171	0x3ba741fb	0.005104301
172	0xbe3b19b7	-0.18271528
173	0xbc9a5b63	-0.018842405
174	0xbc4c9357	-0.0124863
175	0x3c72409f	0.014785915
176	0xbdffc687	-0.12489038
177	0xbdb9fa70	-0.0908097
178	0xbdc6b803	-0.09703066
179	0xbe0bffab	-0.13671748
180	0x3e2bca22	0.16776326
181	0x3d4eeda0	0.050519586
182	0x3cc53eaf	0.024077741
183	0xbeb0d49c	-0.34537208
184	0xbeb328f4	-0.34992182
185	0xbe8c0d01	-0.2735367
186	0xbe7404dc	-0.23829979
187	0xbead05cd	-0.33793488
188	0xbeab106d	-0.3341097
189	0xbe30e3d2	-0.17274407
190	0xbdef7796	-0.11692731
191	0xbd6660f9	-0.056244824
192	0xbb3bede2	-0.0028675725
193	0x3d2e11c8	0.042497426
194	0x3d365f52	0.0445245
195	0xbc8b450d	-0.0170007
196	0x3de21c2e	0.11040531
197	0x3cd7b683	0.026332146
198	0xbec1c8a5	-0.37848392
199	0xbed1a34b	-0.40944895
200	0x3e71514e	0.23566172
201	0x3e33ca71	0.17557694
202	0x3cb82e76	0.022483092
203	0xbdb8224e	-0.08990918
204	0x3c6f8e3d	0.014621315
205	0x3ca94841	0.020664336
206	0xbebbcf95	-0.3668181
207	0x3dfc3cb4	0.12316266
208	0x3e20cd03	0.15703206
209	0x3d306040	0.04306054
210	0xbd5f859a	-0.05457077
211	0x3de46db2	0.11153735
212	0x3d9ff082	0.07809545
213	0xbe893294	-0.267964
214	0x3e15e078	0.1463641
215	0x3e54bce6	0.20775184
216	0x3d139b29	0.036036644
217	0x3da0415c	0.07824966
218	0xba4b3fdf	-0.0007753353
219	0xbe065564	-0.13118511
220	0xbdc54500	-0.09632301
221	0x3d2040c5	0.03912427
222	0xbd142ade	-0.036173694
223	0xbe3f58ce	-0.1868622
224	0xbe48349a	-0.19551316
225	0x3e6f9bd5	0.23399289
226	0x3e3359ea	0.17514768
227	0xbcd56ca7	-0.026052786
228	0x3d103d69	0.035214815
229	0x3d3db11e	0.04631149
230	0x3bb2d563	0.0054575666
231	0x3e25d69f	0.16195153
232	0x3e65cebf	0.22442149
233	0x3e14ba6b	0.14524238
234	0x3dc7bf42	0.097532764
235	0xbdc91e17	-0.09820192
236	0xbe946cf5	-0.28989378
237	0xbd280150	-0.041016877
238	0x3cc9caa4	0.02463276
239	0x3dcfa01f	0.101379625
240	0xbe22b279	-0.15888394
241	0x3d8f11a4	0.069857866
242	0xbe45ef02	-0.19329455
243	0xbd820f99	-0.06350631
244	0xbe145129	-0.14484085
245	0xbdffe8a3	-0.12495544
246	0x3d473b96	0.04864081
247	0x3d8dc017	0.06921404
248	0x3e090fe8	0.13384974
249	0x3d255940	0.04036832
250	0x3dd6c88a	0.104874685
251	0xbe8dc933	-0.27692565
252	0x3e252ede	0.1613116
253	0xbe0a8f18	-0.13531148
254	0xbdf7c3ef	-0.12097918
255	0xbc89fcf2	-0.016844247

levels.level_0.wavelet.P.operator.1.bias f4 [64]
0	0xbe16ea57	-0.14737831
1	0xbdb6c2ab	-0.08923849
2	0xbe3729c7	-0.1788703
3	0xbdd11754	-0.102095276
4	0xbd524bf5	-0.05134197
5	0x3c24b6c4	0.01005334
6	0xbe121258	-0.1426481
7	0xbe4ae935	-0.19815524
8	0xbd90d9a4	-0.07072762
9	0xbdfe5851	-0.12419189
10	0xbdd6779b	-0.10472032
11	0xbd521edd	-0.051298965
12	0xbc9ff2ab	-0.019524893
13	0xbe205346	-0.15656766
14	0xbe302ef6	-0.17205414
15	0xbd392d4c	-0.045209214
16	0xbae791fd	-0.0017667409
17	0xbe1fc017	-0.1560062
18	0xbd5c7147	-0.053818967
19	0xbe1528ba	-0.14566317
20	0xbd6dabb8	-0.058025092
21	0xbe11a2cd	-0.1422226
22	0xbe320130	-0.17383265
23	0xbe573299	-0.21015395
24	0xbe1c13ac	-0.15241879
25	0xbe28c0fe	-0.1647987
26	0xbe216f60	-0.15765142
27	0xbcaab672	-0.02083895
28	0xbdeee492	-0.1166469
29	0xbe1fba09	-0.1559831
30	0xbdc3cc8e	-0.095605
31	0xbdaa4228	-0.083133996
32	0xbdb5df9d	-0.088805415
33	0xbe27dd84	-0.16393095
34	0xbd9cb0d5	-0.076509155
35	0xbe08f2ed	-0.13373919
36	0xbd21eb60	-0.03953111
37	0xbda3a5c7	-0.07990604
38	0xbd738571	-0.05945343
39	0xbe481e57	-0.19542824
40	0xbdaf34e6	-0.085550115
41	0xbd9a3e67	-0.075314336
42	0xbd512f87	-0.051070716
43	0xbe264b86	-0.16239747
44	0xbdb63c6a	-0.08898242
45	0xbe7a894f	-0.24466442
46	0xbd3891c8	-0.045060903
47	0xbd9d2ab7	-0.07674163
48	0xbdae6078	-0.08514494
49	0xbdeee7b2	-0.11665286
50	0xbe0d8310	-0.13819528
51	0xbd971baa	-0.073783234
52	0xbdfe7a54	-0.12425676
53	0xbda651e8	-0.08121091
54	0xbd9c1ecf	-0.07623064
55	0xbe05d684	-0.13070112
56	0xbe30478b	-0.17214791
57	0xbe4a9e3a	-0.19786921
58	0xbde19ebb	-0.110166036
59	0xbe33dcbd	-0.17564674
60	0xbe5e68a5	-0.21719606
61	0xbd915370	-0.070959926
62	0xbdc1b037	-0.094574384
63	0xbddee787	-0.10884004

levels.level_0.wavelet.P.operator.4.weight f4 [64, 64, 3]
0	0xbdc8effe	-0.098114
1	0x3d49213f	0.04910397
2	0xbd018ace	-0.031626515
3	0xbe655897	-0.22397076
4	0xbe56fedb	-0.20995657
5	0xbe86c8d8	-0.26325107
6	0x3d85e289	0.06537349
7	0x3e05b8e3	0.1305881
8	0x3e231302	0.1592522
9	0x3d85fbd4	0.06542173
10	0x3dcf6cdf	0.101281874
11	0x3e654947	0.22391234
12	0x3e4809ab	0.19534938
13	0x3e13eebc	0.14446539
14	0x3d7e5716	0.06209477
15	0x3dd60fa6	0.104522035
16	0x3e15882d	0.14602728
17	0x3dea95a3	0.11454322
18	0xbca2cf74	-0.019874312
19	0x3e1cb764	0.15304333
20	0x3e568507	0.20949183
21	0x3d80c23b	0.062870465
22	0x3e5d3655	0.21602757
23	0x3dabd0dd	0.08389447
24	0xbb11d979	-0.0022254868
25	0xbc631a0e	-0.013861192
26	0x3cb041bf	0.021515725
27	0xbbd3afac	-0.0064601507
28	0x3db9b433	0.090675734
29	0xbdd2de91	-0.102963574
30	0xbe53fcc2	-0.20701888
31	0xbe41a9b8	-0.18912399
32	0xbe092755	-0.1339391
33	0xbcfc2353	-0.030778563
34	0xbd8862d0	-0.06659472
35	0x3d6e7b8d	0.058223296
36	0xbca245b4	-0.019808628
37	0x3d484db5	0.048902232
38	0x3e4fe3c9	0.20301737
39	0x3d3ca0e2	0.046051867
40	0xbd00288c	-0.03128867
41	0x3d24c564	0.04022731
42	0x3de197dd	0.11015294
43	0x3db39818	0.08769244
44	0x3d8dcf09	0.069242544
45	0x3df464b3	0.11933269
46	0xbd318513	-0.0433398
47	0xbcde8850	-0.027164608
48	0x3da691b2	0.08133258
49	0x3ccfef48	0.025382653
50	0x3d039556	0.03212484
51	0x3cca248f	0.024675636
52	0x3d279cf5	0.04092117
53	0x3d6210be	0.055191748
54	0x3d98dcca	0.07463987
55	0x3e2c79a2	0.16843274
56	0x3e0419c8	0.1290046
57	0xbe4cb515	-0.19990952
58	0xbd7dfdce	-0.062009625
59	0xbec794aa	-0.3898061
60	0x3bdd3223	0.0067503615
61	0xbba660de	-0.0050774654
62	0xbd1c409e	-0.03814756
63	0x3d5e90ab	0.054337185
64	0x3dd3eb43	0.10347607
65	0xbdaa4f7f	-0.08315944
66	0x3dcd9ebb	0.10040041
67	0x3dcb3e79	0.09924025
68	0x3da9a2a9	0.08282978
69	0x3dcf5ae8	0.10124761
70	0x3e56ba73	0.20969562
71	0x3e6f9c91	0.23399569
72	0x3dd13e88	0.10217005
73	0x3d136c67	0.035992052
74	0x3df8707d	0.121308304
75	0x3dedd35a	0.11612578
76	0xbd5db3d9	-0.054126594
77	0xbe2001f7	-0.1562575
78	0x3e140189	0.1445371
79	0x3e205c20	0.15660143
80	0x3dc816ce	0.09769975
81	0xbdba1c9e	-0.090874895
82	0xbdd169bf	-0.102252476
83	0x3d023986	0.03179314
84	0x3e43aa84	0.19108015
85	0x3ead8914	0.33893645
86	0x3ecf43e0	0.40481472
87	0x3d94ac35	0.072594084
88	0x3e134969	0.14383473
89	0x3e1d1caa	0.15342966
90	0xbd438901	-0.04773808
91	0xbe0ffd3b	-0.14061444
92	0xbd0fa412	-0.03506858
93	0x3e0c3d26	0.13695201
94	0x3db95696	0.09049718
95	0x3cbb233e	0.022843953
96	0x3c540bf2	0.012942301
97	0x3de1b9c9	0.11021764
98	0x3e3e8069	0.18603672
99	0x3a3f1f13	0.0007290702
100	0x3ddaf303	0.10690882
101	0x3c477433	0.0121737
102	0xbe7d4926	-0.24734935
103	0xbe1a7aff	-0.15085982
104	0xbe1ab990	-0.15109849
105	0x3e3eb60b	0.18624131
106	0x3e2bf1b1	0.16791417
107	0x3d0fa094	0.03506525
108	0xbd229434	-0.03969212
109	0xbd7cc92f	-0.0617153
110	0x3b135f42	0.0022487198
111	0xbe07424d	-0.13208885
112	0xbe20f349	-0.15717806
113	0xbddb17de	-0.10697912
114	0xbe4e262d	-0.2013175
115	0xbe94735b	-0.2899426
116	0xbe4d4399	-0.20045318
117	0x3cb357d8	0.021892473
118	0x3cefd0ef	0.029274432
119	0x39c98dd4	0.00038443378
120	0xbdc695ba	-0.09696527
121	0x3d84eee0	0.06490874
122	0x3c3599f4	0.011084069
123	0x3eaa1b36	0.33223885
124	0x3e9a7d95	0.30173936
125	0x3ee02333	0.43776855
126	0xbe0fb36b	-0.14033286
127	0xbda01b49	-0.07817704
128	0xbe5c4c89	-0.21513571
129	0xbe09c753	-0.13454942
130	0xbe5a40ef	-0.21313833
131	0x3d906dcf	0.07052194
132	0x3e7614a4	0.24031311
133	0x3dca0379	0.098639436
134	0x3caff362	0.021478359
135	0x3c9fec24	0.01952178
136	0x3e8c5667	0.2740967
137	0x3d2819fb	0.041040402
138	0xbdbfa51f	-0.09357666
139	0xbe281d1d	-0.16417356
140	0xbe1243a6	-0.14283618
141	0xbced9e8d	-0.029006267
142	0xbdfc0197	-0.12304991
143	0xbe0a4be7	-0.13505517
144	0xbdfd2dc9	-0.123622485
145	0xbe83978a	-0.25701553
146	0xbe1d6275	-0.1536959
147	0x3dfb40b1	0.12268198
148	0x3e0d3fab	0.13793819
149	0x3bdff690	0.0068348125
150	0xbea2ea1a	-0.3181923
151	0xbe3c9f32	-0.18420103
152	0xbd0da7f2	-0.034583993
153	0xbef09b0f	-0.469933
154	0xbe4f7c01	-0.20262147
155	0xbee78def	-0.45225474
156	0xbe0e9b28	-0.13926375
157	0xbe3c79e8	-0.18405879
158	0xbdab298e	-0.08357535
159	0x3d11b0fb	0.035569172
160	0x3c4ffe84	0.012694959
161	0x3d929d5d	0.07158921
162	0x3e3fbfcf	0.18725513
163	0xbd426ea4	-0.047468796
164	0xbd9b1a32	-0.07573356
165	0xbe8cd72f	-0.27507922
166	0x3d316408	0.043308288
167	0xbeed149d	-0.4630479
168	0x3ded3f3d	0.11584327
169	0x3da7bd74	0.08190432
170	0x3d20831c	0.039187536
171	0x3d77a876	0.06046339
172	0x3dfb1cf5	0.122613825
173	0x3dd89740	0.10575724
174	0x3bbabbdd	0.0056986646
175	0x3dda7ded	0.1066855
176	0x3dba1b1d	0.09087203
177	0xbc25c4aa	-0.010117689
178	0xbc0fb013	-0.008770007
179	0x3db38238	0.08765072
180	0xbee483ac	-0.44631708
181	0xbeef1332	-0.46694332
182	0xbf0f3207	-0.5593571
183	0x3dc54f2f	0.09634244
184	0x3e1712f4	0.14753324
185	0xbd5553f5	-0.05208202
186	0xbf098153	-0.5371296
187	0xbe37d3de	-0.17951915
188	0xbf032dcc	-0.51241755
189	0xbe352b51	-0.17692305
190	0xbdc86faa	-0.09786923
191	0xbde4f068	-0.11178666
192	0xbd4d2190	-0.050080836
193	0x3e045edb	0.1292681
194	0x3dc7bc57	0.0975272
195	0xbd8be080	-0.06829929
196	0xbdc2bfb9	-0.095092244
197	0xbe027564	-0.12740093
198	0xbe85f2d2	-0.2616182
199	0xbccd7173	-0.02507851
200	0xbe7ee661	-0.2489257
201	0xbe360b0e	-0.17777655
202	0xbca00331	-0.019532772
203	0x3de580c2	0.11206199
204	0x3e00b3ce	0.1256859
205	0x3e3a0e1a	0.18169442
206	0x3e295c62	0.16539147
207	0xbd9766a8	-0.07392627
208	0xbe08e03e	-0.13366792
209	0xbe636450	-0.22206235
210	0x3e2af4d9	0.16694964
211	0x3ba6f101	0.005094648
212	0x3c4332b9	0.011913949
213	0xbe385fc1	-0.18005277
214	0x3da345c5	0.07972292
215	0xbe1e9620	-0.15486956
216	0x3dcb5fdc	0.09930393
217	0x3dd14c5b	0.10219642
218	0x3e7fab57	0.24967705
219	0xbeb7c833	-0.35894927
220	0xbe69b549	-0.22823061
221	0x3d15c056	0.03656038
222	0xbc983764	-0.0185811
223	0x3db9faa8	0.09081012
224	0x3d205923	0.039147507
225	0xbd1e26b7	-0.03861114
226	0xbd9251ba	-0.07144494
227	0x3d593155	0.053025562
228	0xbe13ceb8	-0.14434326
229	0xbe85474d	-0.2603096
230	0x3d57fe49	0.05273274
231	0xbc2e4d37	-0.010638527
232	0xbc04d471	-0.008107291
233	0xbd2a849f	-0.041630384
234	0xbe23ee66	-0.1600891
235	0xbe9f274d	-0.31084672
236	0xbeee06f9	-0.46489695
237	0xbd6f04b2	-0.058354087
238	0x3e61bda7	0.22045003
239	0x3c02b7b7	0.007978371
240	0x3c8de6e6	0.017322015
241	0x3b587b3f	0.0033032445
242	0xbe00bf90	-0.12573075
243	0x3e245eda	0.16051808
244	0x3e2bfee8	0.16796458
245	0x3c8bc03d	0.01705944
246	0xbd7663b1	-0.060153667
247	0xbdf102b1	-0.117680915
248	0xbe25b65c	-0.16182846
249	0x3d2dacd5	0.042401154
250	0xbcd1fbac	-0.025632702
251	0x3cd9d925	0.0265928
252	0x3dc63289	0.096776076
253	0x3df02725	0.11726216
254	0x3ce3d095	0.02780942
255	0xbd8a2ab5	-0.06746427

levels.level_0.wavelet.P.operator.4.bias f4 [64]
0	0xbdb4c657	-0.08826893
1	0x3e753e48	0.2394954
2	0x3e648e29	0.22319855
3	0x3e76cae9	0.24100842
4	0x3d8c1284	0.06839469
5	0x3e1025ef	0.1407697
6	0x3dae7398	0.085181415
7	0xbe072d7a	-0.13200942
8	0x3ddf30c5	0.10897974
9	0x3e49f8e7	0.19723855
10	0xbdb85cfa	-0.09002109
11	0xbc6bc198	-0.014389418
12	0x3e44106d	0.19146891
13	0x3db73d46	0.08947234
14	0x3e104db8	0.14092147
15	0x3e45c792	0.19314411
16	0x3e24fe9a	0.16112748
17	0xbd11f86d	-0.035637308
18	0x3dead736	0.114668295
19	0x3e0742be	0.13209054
20	0x3e2b959a	0.16756287
21	0x3e8d9508	0.27652764
22	0x3e217a55	0.15769322
23	0x3df12f4e	0.11776601
24	0xbdd35296	-0.103184864
25	0x3e3de438	0.1854409
26	0x3d7d14d6	0.06178745
27	0xbe177073	-0.1478899
28	0x3ea47880	0.32123184
29	0x3d511df7	0.051053967
30	0x3e1a5400	0.15071106
31	0x3dfbd88e	0.12297164
32	0x3e157a49	0.1459743
33	0x3de2e17c	0.11078164
34	0x3da2f4c7	0.07956844
35	0x3e088033	0.13330154
36	0x3d2b7da7	0.04186788
37	0x3c859da6	0.016310524
38	0x3d86d19d	0.06582949
39	0x3e476a97	0.19474255
40	0x3e00195e	0.12509677
41	0x3de0b13d	0.109713055
42	0xb9df8065	-0.00042629536
43	0x3e186132	0.14880827
44	0xbd176ff6	-0.03697201
45	0x3e1cc949	0.15311159
46	0x3e242391	0.16029193
47	0x3e5305cc	0.2060768
48	0x3e108cc6	0.14116201
49	0x3d7521d8	0.05984673
50	0x3d8c6aa5	0.06856278
51	0x3caad16f	0.020851819
52	0x3e0eaa3f	0.13932131
53	0x3e336753	0.17519884
54	0x3e1bd278	0.15217006
55	0xbe0ea7b1	-0.13931157
56	0x3ddb6ae0	0.10713744
57	0x3e2e4ede	0.17022273
58	0x3ea30613	0.31840572
59	0x3e33b2d3	0.17548685
60	0xbc36b315	-0.011151095
61	0x3dc28ada	0.0949914
62	0x3e4ab0b2	0.19793966
63	0xbd9ad8e2	-0.07560898

levels.level_0.wavelet.U.operator.1.weight f4 [64, 64, 3]
0	0xbdcb6639	-0.09931607
1	0xbe11ff79	-0.14257611
2	0xbd9eedfb	-0.07760235
3	0x3d13358b	0.035939734
4	0xbd101fd4	-0.035186604
5	0xbbbaf234	-0.0057051424
6	0x3cb3ab1e	0.021932181
7	0x3ad09a6d	0.0015915163
8	0x3d2905f0	0.041265428
9	0xbe2a6d74	-0.16643316
10	0xbe9ece70	-0.31016874
11	0xbe96ede2	-0.29478365
12	0xbd9cd40d	-0.07657633
13	0xbbd1c2c7	-0.006401393
14	0xbe0786a6	-0.13234958
15	0xbe78cc7d	-0.24296756
16	0xbe88bc13	-0.2670599
17	0x3a6d3978	0.0009049396
18	0xbebd5902	-0.3698197
19	0xbec94656	-0.39311475
20	0xbe7b0f1f	-0.24517487
21	0x3dea2795	0.11433331
22	0xbe736037	-0.23767172
23	0xbc77d8fa	-0.015127415
24	0xbd005175	-0.031327683
25	0xbd96ee31	-0.0736965
26	0xbccef3ef	-0.025262801
27	0x3d446e95	0.04795702
28	0x3dea800e	0.11450206
29	0x3cc24e05	0.023718843
30	0x3d8bd9ee	0.06828676
31	0x3e382698	0.17983472
32	0x3d41642f	0.047214683
33	0xbd8fbfc3	-0.070189975
34	0xbdc0978b	-0.094039045
35	0xbe540073	-0.20703296
36	0xbea089fc	-0.31355274
37	0xbe8fcbcf	-0.2808518
38	0xbe66f8cf	-0.2255585
39	0xbd4ba50f	-0.04971796
40	0xbd944964	-0.07240561
41	0xbde8832b	-0.11353143
42	0xbe94b41f	-0.2904367
43	0xbe83edc3	-0.25767335
44	0xbe87dd01	-0.265358
45	0xbea09dbc	-0.31370342
46	0xbeb00796	-0.34380788
47	0xbe1d615c	-0.15369171
48	0xbebd89da	-0.37019235
49	0xbe94d79a	-0.2907074
50	0xbe5a2d67	-0.21306382
51	0x3e0b3d3a	0.13597575
52	0x3d529c52	0.05141861
53	0x3d1d00bb	0.038330775
54	0xbeb6746d	-0.356357
55	0xbe22730b	-0.15864198
56	0xbde5520f	-0.11197292
57	0xbd6e2be0	-0.05814731
58	0x3cabe691	0.020983966
59	0xbdba9070	-0.091095805
60	0xbdc044ac	-0.09388098
61	0xbdaa7086	-0.083222434
62	0xbdcae05b	-0.09906074
63	0xbe3f7967	-0.18698655
64	0xbe81e859	-0.2537258
65	0xbe722e2b	-0.23650424
66	0x3e29274f	0.16518901
67	0x3e03be7d	0.12865634
68	0x3dda51cf	0.10660135
69	0xbe7f9492	-0.24959019
70	0xbe99fe97	-0.3007705
71	0xbe91c584	-0.28471005
72	0x3b995501	0.0046793227
73	0x3da86e73	0.082241915
74	0xbc74d432	-0.014943169
75	0xbe8cd3d0	-0.2750535
76	0xbeda25c1	-0.4260693
77	0xbe8e5298	-0.2779739
78	0x3e380093	0.17968969
79	0x3ddcfa23	0.10789897
80	0x3d9b7296	0.07590215
81	0x3e10b055	0.14129765
82	0x3e009119	0.1255535
83	0x3dff01c0	0.12451506
84	0xbebe77b6	-0.37200707
85	0xbe4922d3	-0.1964219
86	0x3d502b5a	0.050822593
87	0x3c5ef29d	0.013607648
88	0xbc24d459	-0.010060393
89	0x3daa91b9	0.08328576
90	0x3e0a98be	0.13534829
91	0x3dbe54e0	0.09293532
92	0xbcc20d50	-0.023687989
93	0xbe6a4c6d	-0.22880717
94	0xbd775c56	-0.060390793
95	0xbcba18df	-0.022716938
96	0xbd678a8d	-0.056528617
97	0xbdb6c99e	-0.08925174
98	0x3d891123	0.06692722
99	0x3e0c9cfe	0.13731763
100	0xbc2715c5	-0.010198061
101	0xbcc4a842	-0.024006013
102	0x3e3b233b	0.18275158
103	0x3dcbf937	0.09959643
104	0x3e0faec6	0.14031515
105	0xbd2bd207	-0.041948345
106	0x3e13e329	0.14442123
107	0xbd4cd6c2	-0.050009497
108	0xbdc409a3	-0.095721506
109	0xbdd98eae	-0.10622917
110	0xbe12c921	-0.14334537
111	0x3d96fe69	0.07372744
112	0x3e6acdc8	0.22930062
113	0x3ca1218d	0.019669319
114	0xbdffbc2a	-0.12487061
115	0xbe155130	-0.14581752
116	0xbdc099af	-0.09404313
117	0x3e859551	0.26090482
118	0x3d938491	0.072030194
119	0x3d8d9c7d	0.069146134
120	0x3cdd9be3	0.027051872
121	0x3df444af	0.11927163
122	0xbdac4009	-0.08410651
123	0xbd13c22d	-0.036073852
124	0xbe02d5d7	-0.12776886
125	0x3bba2a5f	0.0056813206
126	0x3d97b4ad	0.07407508
127	0xbe5b4b92	-0.21415547
128	0xbe3a3b22	-0.1818662
129	0x3ce253d4	0.027627863
130	0x3d2459dd	0.040124763
131	0xbd0a57b8	-0.03377506
132	0x3c020921	0.007936747
133	0x3e2c9ed8	0.16857469
134	0xbca13968	-0.019680694
135	0xbe6ac2a7	-0.22925816
136	0xbeda963e	-0.4269275
137	0xbef03cfe	-0.46921533
138	0xbd45a4a8	-0.04825273
139	0xbc5eaf2e	-0.013591571
140	0x3cb88d77	0.022528393
141	0xbe601f12	-0.21886852
142	0xbddece4d	-0.108791925
143	0x3c729f41	0.014808477
144	0xbe509cbf	-0.20372294
145	0xbe984103	-0.297371
146	0xbdce72a3	-0.10080459
147	0x3d755f3d	0.05990528
148	0x3d9e4e3c	0.07729766
149	0x3dbbdf9a	0.09173508
150	0x3d5bd349	0.053668294
151	0x3e227ac9	0.15867151
152	0x3e44e7ad	0.19229002
153	0xbe21fad4	-0.1581834
154	0xbe6d496c	-0.2317254
155	0xbe812bea	-0.25228816
156	0xbc1ae054	-0.009452898
157	0xbd10cd82	-0.035352238
158	0xbd22bde4	-0.039731875
159	0xbba06f4f	-0.0048960815
160	0xbc11e4b0	-0.008904621
161	0xbd876190	-0.066104054
162	0x3da23b49	0.07921464
163	0x3dba5faa	0.09100278
164	0x3d82995d	0.06376908
165	0xbdc48b69	-0.09596903
166	0xbe18111c	-0.14850277
167	0xbe7bf74b	-0.24606054
168	0x3dee5773	0.11637773
169	0x3dc395b2	0.095500365
170	0xbd5b80f8	-0.05358979
171	0xbb4c9e30	-0.0031222217
172	0xbe8ccfb4	-0.27502215
173	0xbe265b67	-0.16245805
174	0xbee8aeb3	-0.45445785
175	0xbf0098cd	-0.50233155
176	0xbeaf2a36	-0.34211892
177	0xbe5f90b8	-0.2183255
178	0xbe010b5c	-0.1260199
179	0xbd33d536	-0.043904506
180	0xbe9b483d	-0.3032855
181	0xbe364c05	-0.17802437
182	0x3d58f3f0	0.052967012
183	0xbe813cb8	-0.25241637
184	0xbedc0dd8	-0.42979312
185	0xbeb324e4	-0.34989083
186	0xbea58e25	-0.3233501
187	0xbdc2d21b	-0.09512731
188	0xbe1a7028	-0.15081847
189	0xbe310ed8	-0.17290819
190	0xbf1b198c	-0.60585856
191	0xbe96b10d	-0.29431954
192	0x3d5640b3	0.052307796
193	0x3cd71aa1	0.026257815
194	0x3d93a9d5	0.07210127
195	0xbe05f530	-0.13081813
196	0xbe5ce90e	-0.21573278
197	0xbdedfc41	-0.11620379
198	0xbe0a8c76	-0.13530144
199	0xbde15004	-0.1100159
200	0xbdc42090	-0.09576523
201	0x3de82c6d	0.113365985
202	0x3d811eb3	0.063046835
203	0xbc03df32	-0.008048819
204	0x3dcf4b03	0.10121729
205	0x3e333abf	0.17502879
206	0x3df8aa2c	0.12141833
207	0xbd3425ff	-0.04398155
208	0xbd001cf1	-0.0312776
209	0xbc8be1e9	-0.017075496
210	0x3df85a4a	0.12126596
211	0x3dd5367b	0.10410782
212	0x3df87448	0.12131554
213	0x3d611a98	0.054957002
214	0x3d1ca82d	0.038246322
215	0x3dc4cebd	0.09609745
216	0xbe815afe	-0.25264734
217	0xbed81b56	-0.42208356
218	0xbf1b883c	-0.6075475
219	0xbf37300b	-0.7155768
220	0xbed0e5c0	-0.40800285
221	0xbf4d1f83	-0.8012621
222	0xbedfa3b3	-0.4367958
223	0xbedc7f59	-0.4306591
224	0xbe98bbeb	-0.2983087
225	0xbba48fe3	-0.0050220354
226	0xbd81494a	-0.06312807
227	0x3d64838d	0.05578952
228	0x3dbdf17e	0.092745766
229	0x3e068105	0.13135155
230	0x3dfac438	0.12244457
231	0x3da2f7bf	0.0795741
232	0xbd7f98ff	-0.062401768
233	0x3e26b42e	0.1627967
234	0x3d0eb9ac	0.03484504
235	0x3d5403ac	0.051761314
236	0x3ccf1cae	0.02528223
237	0x3e036813	0.1283267
238	0x3dfba289	0.122868605
239	0x3d7a2b54	0.061076477
240	0x3d5cb82a	0.05388657
241	0x3d1de82e	0.038551502
242	0x3d161182	0.03663779
243	0xbe32e488	-0.1746999
244	0xbdbfdfcc	-0.09368858
245	0xbe9f06e0	-0.31059933
246	0x3d0df3ed	0.034656454
247	0x3ce2fe0a	0.027709026
248	0x3d049f7e	0.032378666
249	0xbd8f5936	-0.069994375
250	0xbc1b66e9	-0.009484985
251	0x3d9f8340	0.07788706
252	0xbd64bc8d	-0.05584388
253	0xbe0ba865	-0.13638456
254	0xbdb52a8c	-0.08846006
255	0x3e07b141	0.13251211
