checkpoint/migou_dataset_19.08_AWN_model.pkl (torch, 507932 bytes, 24 tensors)

conv1.1.weight f4 [64, 1, 2, 7]
000000 c8 e4 af be 6c 3b 99 bd d0 96 97 bc f8 1c c6 3d
       -0.34354234 -0.07482037 -0.01850453 0.09673494
000010 69 c6 42 be 44 27 61 bc 6a 51 85 3f f8 dc 32 bf
       -0.19021 -0.013742272 1.0415471 -0.6986842
000020 f7 d2 05 bf 53 cb 07 bf 0e 32 10 bf 8a d7 82 bc
       -0.5227503 -0.53044623 -0.5632638 -0.015971918
000030 2c bd cc 3f 62 97 eb 3f 52 6b c9 be 70 7c 1d 3f
       1.5995231 1.8405573 -0.3933969 0.61518
000040 aa 4c ad 3f e6 c6 a9 3f a4 c4 49 3e 67 5e 90 bd
       1.3539021 1.3263824 0.19703919 -0.07049256
000050 a5 dc bd be b1 d8 32 bd 93 5d 0d 3f a8 e5 65 be
       -0.370824 -0.043663684 0.5522091 -0.22450888
000060 a2 23 4a bf f5 ee 56 bf 4e 23 f3 be eb 8e 6a 3f
       -0.7896062 -0.8395837 -0.47487873 0.91624326
000070 a7 28 c3 be 1e 79 b0 be 5f da 03 3d 82 07 19 3e
       -0.38116953 -0.34467405 0.032190677 0.1494427
000080 50 db c5 3e b0 12 41 3d e7 eb c7 3e 77 49 cb bf
       0.38643885 0.047136962 0.39047167 -1.5881795
000090 c1 54 6c bf 50 9a 35 bf 21 29 ed bc 49 e2 16 3f
       -0.92316824 -0.7093859 -0.028950276 0.58939034
0000a0 78 42 78 3f b5 6b d8 3f 4f e5 15 3e 56 a4 2d be
       0.96976423 1.690787 0.14638256 -0.1695722
0000b0 fb a3 10 bf 2d 04 05 bf d8 df 5e 3e a6 ce 2f 3f
       -0.56500214 -0.51959497 0.21765077 0.68674695
0000c0 fc 00 7d 3f 02 7f b2 bc 52 4c bb 3e ed 95 46 3f
       0.9882963 -0.021789078 0.36581665 0.7757252
0000d0 86 a2 87 3f 40 17 3d 40 65 08 53 3f 8c 96 14 bf
       1.0596473 2.954544 0.82434684 -0.58042216
0000e0 c2 d8 16 bf a5 cf 50 be 1d e4 9c 3e 4a 8a 18 3f
       -0.58924496 -0.2039171 0.30642787 0.5958601
0000f0 e1 37 a7 3e 4d 6a 37 3f 06 ff ae bc a5 df 67 3f
       0.3265982 0.7164658 -0.021361839 0.9057563
000100 50 98 38 3f 9c e0 f6 3e ba bf 98 3e 90 7f be be
       0.7210741 0.48218238 0.29833776 -0.37206697
000110 38 52 94 bf 3f 59 ab bf cc 6f e5 3e 8b 4a 23 3f
       -1.1587591 -1.3386611 0.44811857 0.6378562
000120 07 1e b9 3e 7b 27 8e be 5e 42 90 bf a7 b3 82 bf
       0.36155722 -0.27764496 -1.1270254 -1.0211076
000130 a2 5b 01 3f 06 7b 38 bf a9 23 18 bf 3c 4f a2 3d
       0.50530446 -0.7206272 -0.59429413 0.07925269
000140 27 f6 45 3f aa 39 74 3f 9c f1 40 3f 45 a2 24 bf
       0.77328724 0.9540049 0.75368667 -0.64310104
000150 82 1f 6f 3f 08 1f d3 3e 8e db 1a bf 22 f7 74 bf
       0.9340745 0.41234612 -0.60491264 -0.95689595
000160 18 a0 98 bf 1d 37 e7 bf c2 40 2a 3f fb b1 bf 3c
       -1.1923857 -1.8063694 0.6650506 0.023400297
000170 2c b5 12 3f 18 d9 af 3e 66 35 33 be 88 58 9b be
       0.57307696 0.34345317 -0.17500839 -0.3034098
000180 6a 4d d7 be 68 e8 44 bf c4 00 c0 3f e4 d0 ef 3f
       -0.4205125 -0.76917124 1.5000234 1.8735623
000190 38 b2 89 3f be 47 8e 3e 99 95 55 bf e7 09 74 bf
       1.0757513 0.2778911 -0.8343139 -0.9532761
0001a0 6b 6e aa bf 45 55 1d be f6 0f 11 be 4e 9b 19 3e
       -1.3314947 -0.15364559 -0.14166245 0.1500065
0001b0 fa 4b 82 3c 35 39 20 be a8 b4 e0 bd ff ee d3 3e
       0.01590537 -0.15646823 -0.109719574 0.41393277
0001c0 80 57 d5 3e 8a 9f 11 3e 09 c4 6d bf 34 2c 49 bf
       0.4166832 0.14221016 -0.9287725 -0.78583074
0001d0 ec 44 fa be 51 bf 14 bf 99 85 6e 3f fe 9e 34 bc
       -0.48880708 -0.58104426 0.93172604 -0.011024235
0001e0 c7 22 40 3e 27 e2 a4 bf 3b 57 97 bf fd 59 99 3e
       0.18763267 -1.2881516 -1.1823496 0.29951468
0001f0 6c 61 2e be 5a 5b 53 3e 57 e5 cf 3f 5c 94 59 3f
       -0.17029351 0.20640317 1.6241864 0.84992003
000200 eb b0 0e 3f 0b 6c 11 bd 25 89 e7 be 72 c0 05 bf
       0.55738705 -0.03550343 -0.4522182 -0.52246773
000210 0c 5a 90 bf 0b 2a 8c 3f 14 0d 0a 3f 62 09 65 3e
       -1.127748 1.095033 0.53926206 0.2236686
000220 75 ce c3 3c e5 88 cf be fa 70 20 be 4e fc 1e bf
       0.023902157 -0.4053413 -0.15668097 -0.62103736
000230 6e b0 bc 3f f5 81 42 3f da 0c 84 3e 41 cc c4 be
       1.4741342 0.7597955 0.25791055 -0.38437083
000240 f1 8d 9b be d4 bc c6 be 1c 9c 09 bf c7 46 93 bf
       -0.3038173 -0.3881594 -0.5375383 -1.1505975
000250 ac 42 5f bf db 17 f0 be ec 99 2b 3e cd d1 57 3e
       -0.8721111 -0.468932 0.16757935 0.21076126
000260 ef 63 4c 3f f9 6a 2d 3f 52 be 60 3e 07 52 8f 3e
       0.79839987 0.6774135 0.21947601 0.2799227
000270 c4 64 c4 3e 3c 0e c7 3e af c4 20 3d 8b 62 29 3e
       0.38358128 0.38878047 0.039250072 0.16541497
000280 79 29 2e bf 10 33 b3 bf 91 b7 29 bf c6 a5 fb 3d
       -0.6803203 -1.3999958 -0.66295725 0.12287478
000290 21 28 57 3f 40 bf 7e 3f 8d 7d 6f 3f 5b 62 2c 3f
       0.84045607 0.99510574 0.9355095 0.6733758
0002a0 36 e0 df be e2 73 07 3c d3 f2 6c be 59 0a 78 bd
       -0.43725747 0.008267375 -0.23139505 -0.060556743
0002b0 df 9a e1 be 3c 39 90 bd 48 48 05 bf d5 67 5d c0
       -0.4406347 -0.070421666 -0.5206342 -3.4594624
0002c0 76 27 52 c0 25 68 0a c0 09 46 a6 bf dc df 51 be
       -3.2836585 -2.1626065 -1.2990123 -0.20495552
0002d0 57 93 c9 3e 43 96 d1 3d b0 ee 9e 3f e9 42 4c 3f
       0.39370224 0.10233738 1.2416592 0.79789597
0002e0 e2 67 49 3f 26 1f 25 be b8 f4 4b bf de 0e 81 bf
       0.7867414 -0.16125163 -0.79670286 -1.0082662
0002f0 e0 e2 02 c0 79 a9 a8 3e 4b 98 b1 3e 15 ad 93 3d
       -2.0450974 0.32941797 0.34686503 0.07210747
000300 f0 8b 27 3e 31 4f e2 be 69 3c 14 bf 50 cf 1c 3e
       0.16361976 -0.44201043 -0.5790468 0.15313458
000310 9f 7f 29 be f4 b4 c5 3d 81 14 df bc 21 ef 6b 3d
       -0.1655259 0.09653655 -0.027231457 0.057601098
000320 3e e9 31 3e 1e e4 2b be 8f 8e 79 be c4 0f 8f 3f
       0.17374131 -0.16786239 -0.24370788 1.1176686
000330 f0 ac 33 3f 6d dc 44 3f 24 58 40 3f 52 46 20 bf
       0.70185757 0.76898843 0.7513449 -0.626073
000340 0b 4d d8 bf e1 4e 0c c0 f9 29 cc bf 17 ea 7a bf
       -1.6898512 -2.1923144 -1.5950309 -0.9801344
000350 c2 c1 00 bf cc da 2b be e6 8e 3e 3e 3d f9 8b 3f
       -0.5029565 -0.16782683 0.18609199 1.0935436
000360 2e 89 09 40 a3 67 36 be 2f 82 21 3c 18 71 7f 3e
       2.1489978 -0.17812972 0.009857698 0.24945486
000370 09 0b 99 bd af 79 b3 bd 10 1e bd 3c 42 25 5e be
       -0.07472808 -0.08763444 0.023085624 -0.216939
000380 8d f6 44 3f 6a 60 27 3f 49 01 84 3e 8a 39 02 3f
       0.76938707 0.6538149 0.2578223 0.5086905
000390 4b 53 f8 3d 7d 61 b6 bf 5b d6 e2 bf 16 5f 3d be
       0.12125262 -1.4248501 -1.7721666 -0.18493304
0003a0 b5 86 70 be 3d b4 ff be 64 7b 27 be bb 7b 4d 3e
       -0.23488887 -0.49942198 -0.16355664 0.2006673
0003b0 4f 41 d3 3e 5e 80 87 3f 8e 8d 41 bf ab 7d 69 bf
       0.41260764 1.058605 -0.7560662 -0.9120738
0003c0 d6 22 4c bd d3 9a 1a bf 00 87 da be c3 6b 59 3f
       -0.04983791 -0.60392493 -0.42681122 0.84930056
0003d0 86 51 8b 3f b8 f8 2d bf 28 a6 c5 be 44 e8 d5 3e
       1.0884254 -0.6795764 -0.3860333 0.41778767
0003e0 5a e5 88 3f 45 7b fb 3d fa 81 98 3e d5 0f 2d 3f
       1.0694993 0.12279371 0.29786664 0.6760228
0003f0 0c fc 8d bf 8b 6a 79 bf 7f dd 37 bf f9 50 3e be
       -1.1092544 -0.97428197 -0.7182235 -0.18585576

conv1.2.weight f4 [64]
000000 ae 52 6e 3f c0 b1 a2 3f 31 89 cf 3f 79 94 93 3f
       0.9309491 1.2710495 1.6213742 1.1529685
000010 6e 0c 81 3f 4f 48 27 3f b2 86 90 3f f0 b9 95 3f
       1.0081918 0.6534471 1.1291106 1.1697369
000020 99 17 97 3f 0c ec 9a 3f 3c b3 8a 3f ef ee 7c 3f
       1.1804076 1.2103286 1.0835948 0.98802084
000030 02 2a 46 3f 2b 36 9b 3f 0e 04 c5 3f 5e b9 e0 3f
       0.7740785 1.2125906 1.5391862 1.755657
000040 92 a6 a3 3f 20 74 8b 3f d4 63 ab 3f 91 ce 96 3f
       1.2785208 1.0894814 1.338984 1.1781789
000050 bc 08 87 3f 1b f6 5d 3f 75 e3 86 3f 63 de ac 3f
       1.054954 0.8670365 1.0538164 1.3505367
000060 99 49 93 3f b3 8f 63 3f ff 7a 31 3f fe 7d 44 3f
       1.1506835 0.8889114 0.693283 0.7675475
000070 c0 49 9a 3f d2 92 e9 3f c6 16 07 3f 70 24 61 3f
       1.2053757 1.8247931 0.52769125 0.87946224
000080 b0 8c f7 3e 59 0e 5d 3f 48 17 ac 3f 42 7c d7 3f
       0.48349524 0.8635002 1.3444605 1.6834795
000090 03 c4 80 3f 8e 86 5b 3f 51 36 8f 3f 29 28 ae 3f
       1.0059818 0.8575219 1.1188451 1.3606006
0000a0 75 8d 7d 3f e8 45 96 3f 69 67 5d 3f bc 60 a2 3f
       0.9904397 1.1740084 0.86485916 1.2685771
0000b0 e6 f0 31 3f 0a d9 26 3f 76 1a 86 3f 79 7f d3 3f
       0.69508207 0.65174925 1.0476825 1.6523277
0000c0 9a 67 80 3f da 42 6c 3f 60 7c b0 3f 00 5c aa 3f
       1.0031617 0.9228951 1.3787956 1.3309326
0000d0 ce a6 4d 3f 13 a9 5c 3f 4f 6a 67 3f 11 ce 5e 3f
       0.8033265 0.86195487 0.9039659 0.8703318
0000e0 d7 10 4b 3f 67 8a 2b 3f 3b d9 92 3f 5b 5c 3e 3f
       0.7932257 0.6700806 1.1472543 0.74359673
0000f0 26 7f 82 3f 60 de b3 3f 5e af b5 3f 04 b8 86 3f
       1.0195053 1.4052238 1.4194143 1.0524907

conv1.2.bias f4 [64]
000000 ff e0 69 3d 97 64 db bf 45 24 a5 3e 2a 9f bb bf
       0.05709934 -1.7140073 0.32254234 -1.4657948
000010 ab fc 5d bf 59 88 d9 bd 02 9f a5 bf 7a 9b 3c 3c
       -0.86713666 -0.106217094 -1.293915 0.011511678
000020 8f 36 d7 bf fe 8d 8c 3d 2f 7c 96 3d 50 10 53 bf
       -1.6813525 0.0686302 0.07347905 -0.82446766
000030 27 a8 3d ba e0 9f f6 3d 84 cc 07 3e e0 11 d5 3e
       -0.00072348345 0.120422125 0.1326161 0.416152
000040 d9 73 1c 3d d6 32 95 bf 91 ff 0b 3e 99 2e 56 3d
       0.03819642 -1.1656139 0.1367171 0.052290533
000050 9d e2 84 bf d1 fc 11 bf b7 48 8d 3d 1f fd c0 bf
       -1.0381657 -0.5702639 0.06898635 -1.5077246
000060 69 5b 33 be e4 42 0d bf 19 a4 48 bf 49 e5 cf bd
       -0.17515339 -0.5518019 -0.78375393 -0.101511545
000070 e0 98 d2 bf 27 99 b4 3e 6b 5f ef be 01 5e ec bd
       -1.6452904 0.35273096 -0.46752486 -0.11541367
000080 0a 5c 65 3c f6 e7 3d bf 9d 5f ad bd 7f cd ab 3e
       0.013998995 -0.7418207 -0.084655024 0.3355522
000090 dd 6c 2b bf 55 72 49 bf f5 5d ab bf 82 da 09 3f
       -0.6696299 -0.7869008 -1.3388048 0.5384904
0000a0 27 fb 9e bf 33 7d 35 3d f2 05 16 bf 94 06 2d 3e
       -1.2420396 0.044308852 -0.5860282 0.1689704
0000b0 7d 54 67 bc ca eb 87 bd f9 42 82 bf 74 c0 b2 3e
       -0.014119265 -0.0663677 -1.0176688 0.34912455
0000c0 88 63 ad bf 5a 05 91 bf 2b 90 49 3d d0 94 13 be
       -1.3546 -1.1329758 0.049209755 -0.14412236
0000d0 8a 8d cd bd 2f 0a 78 bd ff f3 4b bf 2a e0 a5 bd
       -0.10036762 -0.060556587 -0.79669183 -0.080993965
0000e0 6d 20 25 be 65 13 d9 bc 33 84 64 bf cd 41 bc bd
       -0.1612565 -0.026498506 -0.8926422 -0.09192238
0000f0 a3 80 a1 bf 16 84 2a bd 93 d3 a8 3e 9c 11 db 3d
       -1.2617382 -0.041629873 0.32973918 0.10696718

conv1.2.running_mean f4 [64]
000000 e4 ef 83 bc 5a 5a 15 3d fb eb 9d 39 7e dc ab bd
       -0.0161056 0.03646312 0.00030121193 -0.08391665
000010 e9 ee 91 3c 68 9a 68 bc 21 07 f1 bb 04 80 57 3c
       0.017814117 -0.01419697 -0.007355586 0.01315308
000020 5b 7b b4 3c 39 44 47 bb 29 c4 89 3c 1a 12 a2 bc
       0.022031477 -0.0030405654 0.01681717 -0.019784022
000030 92 17 18 3e c0 9f 11 bc b2 5c 9c 3c 6d ef a7 3b
       0.14852741 -0.008888185 0.01908717 0.0051249773
000040 2b 9a 88 bc ac a0 06 bd 2b 2c 87 bc 01 10 a2 3c
       -0.016675076 -0.032868072 -0.016500553 0.019783022
000050 fa 87 b9 3c bf 14 ef 3c d6 62 10 bb 07 e4 57 3d
       0.022647846 0.029184697 -0.0022031567 0.0527077
000060 56 57 0d ba bc 9b 8c bc be 9a bb 3c 7c d0 f1 bd
       -0.0005391737 -0.017164104 0.022900935 -0.11807343
000070 c3 cc 5c bc 14 e6 26 bb 79 30 32 be 06 65 cb bc
       -0.013476553 -0.0025466727 -0.17401303 -0.024828445
000080 88 b7 16 3e 59 8b 4d 3c 8d 30 90 b9 5f 58 16 bb
       0.14718449 0.01254543 -0.00027501993 -0.0022940857
000090 61 4a 86 bb 2f 56 b7 bc d5 a5 3e bd 23 8f 47 3b
       -0.004098222 -0.022379963 -0.04654487 0.0030450306
0000a0 0d 34 58 3c 7f df bd 3b 9c 55 45 bc 8b d9 a4 bc
       0.013196004 0.005794465 -0.012044337 -0.020123264
0000b0 63 d4 5c be 42 5c d5 3d 13 e0 f0 bb b7 02 63 bc
       -0.21565394 0.104179874 -0.0073509305 -0.013855628
0000c0 29 18 1f bd d6 52 86 3d 4b 0a a8 3c 0a eb b1 38
       -0.0388414 0.065587685 0.02051272 8.483797e-05
0000d0 c5 e3 63 3d dc f3 dc bd c6 2e 15 bd 93 a2 a3 3c
       0.05563714 -0.107887 -0.03642156 0.019974982
0000e0 4c 0e ec 3d bb 18 b7 bd e3 14 e0 3a 95 39 31 bd
       0.115261644 -0.08940264 0.0017096068 -0.043267805
0000f0 a0 8e b7 3c 98 81 55 3c e6 8d 7a bb 54 98 81 3c
       0.022406876 0.013031386 -0.003823155 0.015819706

conv1.2.running_var f4 [64]
000000 e5 0f 8b 3f ce 9b 42 40 33 d3 54 3f 05 78 31 41
       1.0864226 3.0407596 0.83134764 11.091802
000010 44 13 9b 3f 89 7e eb 3e 20 d4 33 40 8e ae ee 3f
       1.2115254 0.45994976 2.809822 1.864702
000020 fa fd 09 40 86 f2 8e 3f d1 e9 7c 3f 01 40 b2 3f
       2.1561265 1.1167762 0.98794276 1.3925782
000030 e4 52 13 42 c8 91 a6 3f 7c 9e b2 3f 7f 90 6b 3f
       36.830948 1.3013239 1.3954616 0.9201736
000040 6a 69 7d 3f 00 61 d3 3f a3 19 85 3f 00 7a 86 3f
       0.98988974 1.6513977 1.0398449 1.0505981
000050 6d 72 01 40 1a 88 9c 3f 20 50 91 3f a2 62 7b 40
       2.022609 1.2229035 1.1352577 3.927895
000060 76 9d 93 3d 44 40 9d 3f 17 89 1d 40 cd c0 6c 41
       0.07207768 1.2285237 2.4614923 14.7970705
000070 89 97 d9 3f 42 0a 2d 3f c2 3d 20 42 b4 7d e7 41
       1.699937 0.6759378 40.06031 28.936378
000080 01 02 b1 41 ef d4 d0 3f fc ec 74 3d b5 62 46 3f
       22.125978 1.6314982 0.05979632 0.77494365
000090 2c 7c 9e 3f 36 74 98 3f 95 29 8c 40 05 b7 be 3e
       1.2381644 1.1910465 4.380076 0.37249008
0000a0 04 1b 71 3f 5c 52 58 3f 6f a4 73 3f 8a d3 99 3f
       0.9418185 0.8450067 0.9517278 1.2017682
0000b0 91 c5 56 42 60 6b b0 41 fb 5c a3 3f ac 96 94 3f
       53.692936 22.05243 1.276275 1.1608481
0000c0 ad 1f e8 3f 68 26 94 40 5a 83 a6 3f e8 0f 32 3d
       1.8134667 4.6296883 1.3008835 0.0434722
0000d0 e6 57 7f 41 5f 74 98 41 fb fc d8 3f fa af bf 41
       15.95896 19.056822 1.6952204 23.960926
0000e0 69 ab 73 41 91 6a 90 41 88 44 0a 3f 05 d8 5f 41
       15.229348 18.052034 0.5401082 13.990239
0000f0 81 99 1b 41 3e c2 8f 3f 58 c7 ad 3f e4 0d 00 40
       9.724977 1.1231153 1.357646 2.0008478

conv2.0.weight f4 [64, 64, 5]
000000 07 5f 87 bf 1a a1 31 3e 7d 4b 64 3d 45 03 8c bb
       -1.0575875 0.17346612 0.055736054 -0.0042728507
000010 4c 31 7e be e7 9a fe 3f f1 94 3c 40 c0 f2 42 40
       -0.24823493 1.9891022 2.9465907 3.0460663
000020 2d 27 15 40 01 0b 01 40 de 22 82 bf 55 fc 0a 3f
       2.330516 2.0162966 -1.0166891 0.5429128
000030 bc ba c9 3e 42 ac 4e be e9 b6 20 bf da 40 c9 3d
       0.3940028 -0.20182899 -0.627791 0.098268226
000040 c6 d4 13 bf 53 fb 9a bf 7d db b5 bf 6b b1 e7 bf
       -0.5774654 -1.2107948 -1.4207608 -1.8101019
000050 3e 0f 13 3e 61 29 34 3f fb 49 2d 3f 59 78 18 be
       0.14361283 0.7037564 0.6769101 -0.14889659
000060 ad b1 61 3e 31 37 dc be 29 40 67 3f 99 94 c9 3e
       0.22040434 -0.43010858 0.90332276 0.39371184
000070 92 10 ba 3d b0 a2 6b be 9a da 8b 3f 40 58 a7 3f
       0.09085192 -0.23011279 1.0926087 1.3073807
000080 18 a9 91 3f 6f 26 5d 3f 43 ba 92 be de 99 5f be
       1.1379728 0.8638677 -0.2865773 -0.2183604
000090 ab 25 6b 3f 23 7b 4d 3f d5 c9 32 3e 2c 20 ad 3e
       0.9185435 0.80266017 0.17459805 0.33813608
0000a0 3e b7 c5 3f 2a 96 7e 3f 04 df c0 3f a8 6f 78 3f
       1.5446546 0.9944788 1.5068059 0.97045374
0000b0 1d ae 5e 3e 47 a5 b6 bd f2 83 36 3f 3f d7 17 3f
       0.21746106 -0.08918243 0.7129508 0.59312814
0000c0 34 e8 1b bb 19 23 b3 be 93 4e 13 be d6 88 90 3f
       -0.0023789527 -0.34987715 -0.14385442 1.1291759
0000d0 7c ce a2 3f 60 a5 25 3f d5 5e c2 3f 7f 5c b3 bf
       1.2719264 0.6470547 1.518519 -1.4012603
0000e0 73 42 0a 3f 8f 8d f8 3e a7 3f ba be 65 b7 54 bf
       0.54007643 0.485455 -0.36376688 -0.8309234
0000f0 f0 4b 5c 3f 79 24 9f 3f 2d 5e a4 3f 58 07 97 3f
       0.8605337 1.2433006 1.284124 1.1799116
000100 05 e6 b9 3f 66 1b b6 be bf b0 36 3f af dd 2e 3f
       1.4523321 -0.35567778 0.71363443 0.6830701
000110 08 5e 00 3e a1 cd 03 bf b1 0d 4b 3f db 33 65 3f
       0.1253587 -0.5148564 0.79317766 0.8953225
000120 01 1f 0a 3f 0f d8 d8 3e b1 64 44 3f fd bb 97 3c
       0.5395356 0.4235234 0.7671614 0.018522257
000130 fd 88 0c 3f 67 ec 05 bd f3 f9 41 be 91 8a f2 3c
       0.5489653 -0.032696154 -0.18943004 0.02960709
000140 df 79 3a bf 12 f5 19 3f bd a1 8e 3e e5 f3 e5 be
       -0.7284221 0.6013957 0.27857772 -0.4491264
000150 06 1b bf be 97 4e b8 3f 8e 7e f5 3f 42 4f d1 3f
       -0.37325305 1.4398984 1.9179246 1.6352313
000160 9d 8e 89 3e 25 a2 65 bf 8d d2 2e bf 8c 10 aa bd
       0.26866618 -0.8970054 -0.68290025 -0.08303937
000170 51 42 53 3e a3 0a b1 be 2c 0a 1a 3f 82 fa b9 3f
       0.20630766 -0.34578428 0.6017177 1.4529574
000180 46 f3 8d 3f c6 e7 8a 3f 70 8e 41 3f b0 51 0a 3f
       1.1089866 1.0851982 0.7560797 0.54030895
000190 8b 98 0c bf 73 94 06 bf d3 38 45 bf c4 13 83 bf
       -0.5492026 -0.52570266 -0.7703983 -1.0240407
0001a0 2e 0d 03 bf 49 1e 1c 40 cc fc eb 3f 56 72 7e 3f
       -0.51191986 2.4393485 1.8436522 0.9939321
0001b0 7a 55 73 3f 42 34 56 3f 22 c8 4c bf eb cf c2 3e
       0.950523 0.8367349 -0.7999288 0.38049254
0001c0 81 16 48 3e 97 48 75 bd 6e be f3 bd 70 a2 2d 40
       0.19539835 -0.05988368 -0.11901556 2.7130394
0001d0 8c 11 ea 3f a1 5a 5c 40 bd 03 43 40 c5 3d d7 3f
       1.8286605 3.4430315 3.0471032 1.6815726
0001e0 4b 79 6f bf cc 23 15 be d6 43 e8 3c 32 bf 6b 3e
       -0.93544453 -0.14564437 0.02835266 0.23022154
0001f0 e6 53 2a bf f0 2b 31 bf ef 50 53 3e b5 ce bf 3e
       -0.6653427 -0.6920767 0.20636342 0.37462392
000200 2f fa 5c be da fd 3c bc 61 6c 12 3f 1c 26 83 3f
       -0.21579812 -0.011535132 0.57196623 1.0246005
000210 d0 41 2a 3f ea 70 54 3e 76 25 f0 bc 8d b7 7e 3f
       0.6650667 0.20746198 -0.029314738 0.99498826
000220 e8 17 3b 3f 3b 6e 13 3f 98 e9 03 3f cb e9 12 3f
       0.73083353 0.57590073 0.5152831 0.5738799
000230 65 f4 8a 3e 53 7c 2d 3f e6 9f 3c 3f 36 da fa 3f
       0.27139583 0.6776783 0.73681486 1.9597843
000240 96 cf 7b 3f c5 c2 2a bf 0f 74 b6 3d 9d c2 93 3e
       0.98363626 -0.66703445 0.08908855 0.28859416
000250 85 50 09 bf 04 d7 3b bf 03 fa 74 3f 2a 06 13 3f
       -0.5363849 -0.7337496 0.9569399 0.5743128
000260 e3 5a 7a be 5f 1e ff bd 52 d9 d2 bd 4d 52 b2 3d
       -0.24448733 -0.12456965 -0.10295357 0.08707104
000270 3d 50 ac 3d de 21 04 be a3 a6 a1 bd a3 87 ba 3d
       0.08413742 -0.12903544 -0.078931116 0.09107902
000280 d2 7a b1 3f 84 6f a8 3f 2c f5 99 3f 56 82 74 3f
       1.3865607 1.3159032 1.2027946 0.95511377
000290 ac fc 7c 3f 41 1e ed be 39 db cf 3d 47 c1 aa 3e
       0.98823047 -0.46312144 0.10149235 0.33350584
0002a0 9b 24 09 be 30 f4 1d 3e 48 4c c8 3e 6f 1c 6f 3e
       -0.1339287 0.15425181 0.39120698 0.2335069
0002b0 07 d7 c6 3e 02 e4 92 3e 52 a6 01 be af 94 84 bf
       0.38835928 0.2868958 -0.12661102 -1.0357875
0002c0 8c 24 07 3f ce 70 0f 3f 8c 08 ba be 5e 44 18 bf
       0.5279014 0.560315 -0.36334646 -0.5947932
0002d0 4a 4e fc be 9c d0 7a 3e 27 95 2b be d1 f8 59 be
       -0.4927848 0.2449364 -0.16756116 -0.21286322
0002e0 a8 d0 cc bc c9 6e b6 be 41 40 ea 3e ee e3 b8 bd
       -0.025001839 -0.35631397 0.45752147 -0.09027849
0002f0 22 42 00 bf ee 10 2c bf cd ab 67 3f 11 6f 96 3f
       -0.5010091 -0.6721333 0.9049652 1.1752645
000300 4d 67 96 3f 20 b4 7b 3e 0e aa a8 be 82 6e 23 be
       1.1750275 0.24580431 -0.3294224 -0.15960124
000310 42 1a 90 3e 10 15 ac bd c0 a6 4a bf 47 8b 8b 3e
       0.28145033 -0.08402455 -0.7916069 0.27254698
000320 0d 27 02 3f 88 1e c7 3f 4a 27 db 3f 19 ce f4 3f
       0.50840837 1.5556192 1.7121365 1.9125396
000330 07 01 95 3f b7 09 00 be 59 a9 21 3f 11 e0 cd 3e
       1.1640939 -0.12503706 0.6314903 0.40210012
000340 50 4e d0 3d 63 46 52 bc 6f 1e 6f bf ea 94 23 3f
       0.10171187 -0.012834164 -0.9340581 0.638991
000350 ab a3 a4 3f 29 3c 7d 3f a6 a4 b1 3f 35 38 41 bf
       1.2862448 0.9891992 1.3878372 -0.7547639
000360 a0 75 40 3e fb 74 98 3e 5b 5f d8 bc b1 ef 8f be
       0.1879487 0.2977675 -0.026412657 -0.28112558
000370 0a 83 ad 3f 2e 3f d4 3f ac 88 c5 3f d7 d6 85 3f
       1.3555615 1.6581781 1.5432334 1.0456189
000380 44 c5 4d 3f 43 b2 56 3f cb 04 63 3f 86 f2 71 3f
       0.8037913 0.83865756 0.8867919 0.94510686
000390 a4 2f 48 3f 62 cc 42 3f 8e 8e 82 be e4 6b 9a 3e
       0.78197694 0.76093113 -0.25499386 0.3016044
0003a0 e1 df 5c 3e 87 af 95 bf 07 f1 3e bf 5c 94 d5 be
       0.21569778 -1.1694192 -0.7458653 -0.41714752
0003b0 3a bc 94 be f7 c3 ea 3c 77 45 06 bf b9 cd 90 3e
       -0.29049855 0.028657896 -0.52449745 0.28281954
0003c0 ec d2 5a 3f b5 50 bd 3f 02 37 c1 3f a3 a8 4d be
       0.8547809 1.4790255 1.5094912 -0.20083861
0003d0 12 cf 34 bf 8b a1 1d 40 82 fa 0e 40 bf 82 d9 3f
       -0.70628464 2.4629848 2.2340398 1.6993026
0003e0 c3 1e be 3f 4e 14 d9 3f d6 ac b3 be 22 3d 58 3f
       1.4853138 1.6959321 -0.350928 0.8446828
0003f0 72 52 8d 3f 97 fb 9d 3e ed c3 dc 3f de ef 00 be
       1.1040785 0.3085601 1.7247292 -0.12591502

conv2.1.weight f4 [64]
000000 97 82 a9 3e fc f9 ac 3e fc 2a 9a 3e 52 52 c8 3e
       0.33107445 0.33784473 0.3011092 0.39125305
000010 c5 3e 4b 3e 15 3c 66 3e 16 5a 03 3f 5e c0 16 3f
       0.19848163 0.22483857 0.51309335 0.5888728
000020 1b 91 f2 3e 87 d3 73 3e 35 d7 85 3e 75 96 b7 3e
       0.47376332 0.2381116 0.26140752 0.35856977
000030 55 4b 71 3e 97 c7 a3 3e a0 99 ff 3e 37 7a 5d 3e
       0.23563893 0.31988212 0.49921894 0.21628653
000040 04 16 75 3e ee b1 75 3f b9 ed f0 3e 26 fa ba 3e
       0.2393418 0.95974624 0.47056368 0.36518973
000050 b7 53 75 3e 79 dc 26 3e 65 68 6e 3e 12 48 39 3e
       0.23957716 0.16295041 0.23282011 0.18093899
000060 d5 a0 91 3e 60 c7 04 3f c4 b8 0c 3f ca e2 d5 3e
       0.28443018 0.5186672 0.5496943 0.4177459
000070 1a 3c 05 3f 66 17 53 3f 4a 68 9d 3e 88 84 d3 3e
       0.5204483 0.8245758 0.3074363 0.4131205
000080 53 6f e4 3e 2c fd 2f 3f a0 9e bf 3e 67 2e 82 3e
       0.44616184 0.68745685 0.3742571 0.25426027
000090 45 63 25 3f 0d 95 a5 3e 73 38 9d 3e 1d 13 f1 3e
       0.646046 0.3234028 0.3070713 0.47084895
0000a0 33 81 bc 3e 65 5f 06 3f 04 8e a2 3e 4f a0 0a 3e
       0.3681732 0.5248931 0.31748974 0.13537715
0000b0 4a d6 8d 3e 7d f6 e0 3e 9c f6 bc 3e 4b f4 d1 3e
       0.27702552 0.43938056 0.36906898 0.41006693
0000c0 24 a9 ba 3e 31 32 9a 3e c6 e2 9c 3e d0 de 00 3f
       0.3645717 0.30116418 0.30641764 0.50339985
0000d0 e4 84 6d 3e aa d0 ff 3d c2 b8 09 3f 05 3f e8 3e
       0.23195225 0.124909714 0.53797543 0.4536058
0000e0 0d 77 ba 3e 23 0e 01 3f 4b 66 67 3f 03 9f 3b 3f
       0.36418954 0.50412196 0.9039046 0.7328951
0000f0 e9 46 a7 3e 5a 03 fd 3e 0d 5f c5 3e 22 a6 89 3e
       0.32671288 0.4941662 0.3854908 0.26884562

conv2.1.bias f4 [64]
000000 72 a0 b1 be 75 2a 6a bd b5 b2 ba 3d 46 da ac be
       -0.34692723 -0.057169396 0.09116117 -0.3376028
000010 6c 5e 09 bc 08 23 66 bd ac c3 13 be 4b 80 8f bd
       -0.008384328 -0.056185752 -0.14430112 -0.07006892
000020 27 06 ea bd 49 e0 5e be 57 a0 92 be 7a 42 2e be
       -0.11426955 -0.21765245 -0.28637955 -0.17017546
000030 a3 59 2a bb 24 63 3e be 60 c3 f1 be b4 49 1e bc
       -0.002599337 -0.18592507 -0.47219372 -0.009661127
000040 83 a3 8c bc 84 04 5b bf 4a e4 2b 3e bb a1 c4 be
       -0.017167812 -0.85553765 0.16786304 -0.3840464
000050 9c 44 d8 bd bf bb c6 bc a4 71 38 be d5 ed 70 3c
       -0.10559961 -0.024259446 -0.180121 0.014705141
000060 e3 df 2c bd 1b fc fd be 68 16 a6 be 9b b8 74 bd
       -0.042205703 -0.49606404 -0.3243897 -0.059746366
000070 db d3 01 be e9 05 58 bf 2c cb 1a bd d0 20 af bd
       -0.12678473 -0.8438402 -0.037791416 -0.0855118
000080 59 4f 22 be e8 65 0a bf 85 c2 60 bd 48 39 83 bd
       -0.15850581 -0.54061747 -0.05487301 -0.0640741
000090 0b e7 5a be a6 88 2c bd 56 f3 1e 3e 39 63 71 bd
       -0.21377198 -0.042122506 0.15522513 -0.058932517
0000a0 ec 46 00 be 4a 30 29 be 5a 09 40 be 95 26 72 bd
       -0.12527055 -0.16522327 -0.18753567 -0.059118826
0000b0 96 5e 6c be 35 fc bb bd f0 f5 34 3c 10 e1 95 be
       -0.23082957 -0.09178964 0.011044964 -0.29273272
0000c0 8c 19 4d be 3f 75 04 bd 16 82 d1 bc e3 2a e2 bd
       -0.20029277 -0.032338377 -0.025574725 -0.11043336
0000d0 db a6 12 3c 88 51 e4 bb 79 36 0b be 44 2f 8c bd
       0.008950914 -0.006967727 -0.13594998 -0.06844953
0000e0 2a 4c 1d 3d e4 6f 1b be 68 39 60 bf 00 aa 3e bf
       0.038402714 -0.15179402 -0.87587595 -0.7447815
0000f0 b6 aa 21 bd 7a 42 2e 3e 4f 91 84 be bc 48 1d be
       -0.039469443 0.17017546 -0.25892112 -0.15359777

conv2.1.running_mean f4 [64]
000000 a4 75 b4 41 4f 13 0b c0 45 74 21 41 4d 87 d9 bf
       22.557442 -2.1730535 10.090886 -1.6994416
000010 ef e5 48 40 d0 d8 46 3f 61 39 e5 c0 9e 04 1c c0
       3.139034 0.7767458 -7.1632543 -2.4377818
000020 28 0f 7f c1 7f fb 68 41 8d e2 cb 41 9f 18 9a 3e
       -15.9412 14.5614 25.48562 0.3009691
000030 14 45 c4 40 d2 43 24 c0 ac 23 46 c0 f6 53 af 40
       6.1334324 -2.5666394 -3.0959272 5.478999
000040 c0 63 1c c0 f6 a6 1a c2 90 29 0c 42 ea a9 85 3f
       -2.4435883 -38.663048 35.04059 1.0442479
000050 e9 32 b3 41 2a ea 86 40 83 57 d2 41 93 8f 16 41
       22.399858 4.2160845 26.29273 9.410052
000060 7d ff 45 3f 98 7a 18 41 01 2d 06 c2 13 e9 53 bf
       0.7734297 9.52993 -33.54395 -0.8277752
000070 60 93 48 c1 f3 f8 16 c2 c5 b3 37 bf c9 00 17 c1
       -12.53598 -37.743114 -0.7175868 -9.437692
000080 8a 8f 1c c1 96 fa 04 c2 c9 68 e0 c0 c4 79 a9 c1
       -9.785044 -33.244713 -7.012791 -21.184456
000090 80 06 88 c1 b7 70 65 41 f4 27 3c c2 2a de 05 c1
       -17.003174 14.340018 -47.039017 -8.366739
0000a0 cc 3a 80 c0 9e d1 09 c0 8a 16 40 be 4e 9d 93 41
       -4.0071774 -2.153419 -0.18758598 18.451809
0000b0 eb 39 cd 41 3f ce d4 c0 5a c8 ed 40 4c 28 29 c0
       25.65328 -6.6501765 7.430707 -2.6430845
0000c0 00 65 02 c1 64 c5 0c c0 79 8e 8e 40 11 e1 7e c1
       -8.149658 -2.1995478 4.4548917 -15.929948
0000d0 54 e3 8a 40 96 57 cc 40 53 d6 6c c1 75 0d c8 c0
       4.34025 6.3856916 -14.802325 -6.2516427
0000e0 ec 93 24 c1 9f fa 30 c1 8c 0d 1c c2 40 4a 20 c2
       -10.286114 -11.061187 -39.01323 -40.07251
0000f0 75 82 ad 41 71 30 d5 c0 3b 14 7c c1 68 83 cc 41
       21.6887 -6.6621633 -15.754939 25.564163

conv2.1.running_var f4 [64]
000000 cf be 51 43 4a 77 ab 43 f4 07 ff 41 bb 86 95 43
       209.74535 342.93195 31.878883 299.05258
000010 8e 42 b3 43 0b 7f 9f 43 8d 74 5d 44 ea df 00 43
       358.51996 318.99252 885.8211 128.87466
000020 8a 33 21 43 34 20 8a 43 46 36 6f 43 bb a9 3d 43
       161.20132 276.2516 239.212 189.66301
000030 6b 02 b7 43 d6 9e 91 43 26 d7 38 44 03 56 dd 43
       366.0189 291.2409 739.3617 442.67197
000040 30 32 3e 43 bd 22 8a 44 ed f7 c6 43 48 ee 5d 43
       190.19604 1105.0856 397.93692 221.93079
000050 f7 18 19 43 5f 71 d4 43 03 33 54 43 da a8 e1 43
       153.09752 424.8857 212.19926 451.31915
000060 64 ed 3c 42 42 2d f9 42 97 26 fc 43 cf 17 91 44
       47.231827 124.588394 504.30148 1160.744
000070 ac 95 85 44 f7 c8 9a 44 d0 15 a7 43 7e ae 83 44
       1068.6772 1238.2802 334.1704 1053.4529
000080 46 1c 1b 44 91 14 24 44 86 60 61 42 42 52 35 43
       620.4418 656.32135 56.34426 181.32132
000090 25 ec 6c 44 ef 17 2f 43 91 2e d6 43 fa f8 71 44
       947.68976 175.09349 428.3638 967.89026
0000a0 02 5d 90 43 b8 df bb 42 82 69 89 43 13 5a 53 43
       288.72662 93.93695 274.82428 211.35185
0000b0 5c e6 6a 43 a2 64 84 44 45 c2 db 42 77 4f 69 43
       234.89984 1059.1448 109.87943 233.31041
0000c0 79 e9 9b 43 7d 04 92 43 97 48 8f 44 d9 89 51 44
       311.824 292.03506 1146.2684 838.1539
0000d0 db 42 13 44 11 c2 a7 43 b9 b1 42 44 9a 24 85 44
       589.0446 335.51614 778.7769 1065.1438
0000e0 8b e5 a6 42 1e 03 66 44 91 c6 8c 44 4f 8c 97 44
       83.448326 920.0487 1126.2052 1212.3846
0000f0 28 c9 d1 42 8c 1e e6 43 f5 ec 07 43 67 41 06 43
       104.89288 460.23865 135.92561 134.25548

levels.level_0.wavelet.P.operator.1.weight f4 [64, 64, 3]
000000 46 0a dc 3f 3a 59 cd be 79 9b 73 bf b5 ef 43 be
       1.7190635 -0.40107137 -0.9515911 -0.1913441
000010 db f1 1c bf 72 eb 19 3f 2d 78 60 bf 9d 4d b4 3e
       -0.6130654 0.60124886 -0.87683374 0.35215464
000020 a3 42 0e 3f 3f ad 12 3f fc b4 8c be 8b 09 3a 3e
       0.5557043 0.572956 -0.2748183 0.18167703
000030 48 71 72 be f2 e4 27 bf f1 df ff be b3 bd db bd
       -0.23676026 -0.6558372 -0.4997554 -0.10729542
000040 59 40 0e 3f 57 af f2 be 51 d0 8d 3e 58 f5 45 be
       0.55566937 -0.473994 0.27697995 -0.19331872
000050 1a 2f f3 be be da c9 3d 85 d8 f2 bb 1f 89 e2 3e
       -0.47496873 0.09856175 -0.007411065 0.4424524
000060 e5 cd 6d be 4c 6e 57 be b2 9e 49 be fa 0d 2e 3f
       -0.23223074 -0.21038169 -0.19689444 0.67990077
000070 80 ab 90 bf 68 74 f0 3c 97 56 e5 be 52 31 27 3f
       -1.1302338 0.029352382 -0.44792625 0.6530963
000080 1b 23 8c 3e b4 1a 4e 3f 4d f2 24 3f 9b 68 43 bf
       0.27370533 0.80509496 0.6443222 -0.7633149
000090 08 e0 04 c0 21 fc 77 be c6 ad 21 3f f8 29 e8 3d
       -2.0761738 -0.24217273 0.6315578 0.1133613
0000a0 24 c1 1f 3f 2c f6 f8 be 1a f2 93 bf ef cc 0c bf
       0.62404084 -0.48625314 -1.1558259 -0.55000204
0000b0 52 9c a4 bf 4f a3 00 3f 80 81 fa 3c 6d af 7a bf
       -1.2860205 0.5024919 0.030579329 -0.9792393
0000c0 bd 04 aa 3f 5e 8a 02 40 00 84 9c 3f a6 90 f8 be
       1.3282696 2.0396953 1.2227783 -0.48547858
0000d0 14 99 4d bf 3a 70 12 bf 16 f0 38 3f 5e cf d5 3d
       -0.80311704 -0.57202494 0.7224134 0.10439943
0000e0 2b d6 1d 3f 51 b0 f5 be f2 3b ad be 29 d1 8d 3f
       0.6165492 -0.4798608 -0.33834797 1.1079456
0000f0 bf 02 c3 bf c8 68 15 3f 51 97 e7 3e f8 6c d0 be
       -1.5235213 0.5836301 0.45232633 -0.40708137
000100 12 a1 b7 be b7 b8 f9 3b c8 93 4d 3f 9e 40 ed 3e
       -0.35865074 0.0076208967 0.8030362 0.46338362
000110 1e 6e b2 be 77 d3 06 bf f9 b4 83 be 8d 0d dd be
       -0.34849638 -0.5266642 -0.2572401 -0.431744
000120 c2 7c 9a 3e 0d 49 e5 3e dc 14 1a 3e 18 77 c1 3e
       0.30173308 0.44782296 0.1504702 0.37786174
000130 d6 88 5a 3e 8f 23 00 3e 35 50 99 bf 88 ba 87 be
       0.21341261 0.12513565 -1.1977602 -0.265095
000140 f7 6a 91 3e ec 77 39 bf 16 49 52 bf a6 97 c4 bd
       0.2840192 -0.7244861 -0.8214277 -0.09599237
000150 68 9f 33 3f e6 f4 d6 be 8d 3a b9 bf 41 fb 93 3e
       0.7016511 -0.41983718 -1.4470993 0.2890263
000160 b7 6e 1a be 2d 66 67 bf ff 55 e0 3c c8 49 ac be
       -0.15081297 -0.9039028 0.027384756 -0.3365004
000170 1c 08 7a 3e d8 ad ce be 1c 69 13 3f 69 f3 85 3e
       0.24417156 -0.40367007 0.5758226 0.2616227
000180 c1 58 a0 3e 8d 38 67 3f 4b 77 78 3f 5f 41 b9 3e
       0.31317714 0.90320665 0.97057027 0.36182687
000190 a0 b6 5e bf 16 8a 0d c0 67 b7 b4 bd 4f ab 6c be
       -0.86997414 -2.211553 -0.08824044 -0.23112224
0001a0 64 7f 57 be 80 af 6e bf be 08 85 bf b8 11 cc bf
       -0.2104469 -0.9323654 -1.0393293 -1.5942907
0001b0 de ed 01 bf f9 8c 8b bf c9 b3 c5 bf 6f 8b ba 3e
       -0.5075358 -1.0902396 -1.5445491 0.36434504
0001c0 46 d9 76 3f cf d2 86 bc 60 47 77 bf c7 36 9e 3e
       0.9642528 -0.016457943 -0.96593285 0.30901167
0001d0 4b fe 57 bf f4 2c db bd ea 9e 59 be 7e 4a 95 bf
       -0.84372395 -0.107019335 -0.21252027 -1.1663358
0001e0 14 e3 bd be 25 14 c7 be 16 e8 03 bf 56 25 5f be
       -0.3708731 -0.38882557 -0.5152601 -0.21791586
0001f0 2e 99 a8 3e 49 3a ff 3d 18 7d a8 bf b9 49 1d be
       0.32929367 0.12462289 -1.3163176 -0.15360154
000200 a8 4b 68 be bc 27 a7 3f 74 1e 0c 3e 17 06 6b 3e
       -0.2268511 1.3059001 0.13683492 0.22951542
000210 58 9d 8b bd a8 9a 68 be 9e 6c df be 64 85 8d be
       -0.0681712 -0.22715247 -0.43637556 -0.2764083
000220 fa d0 be be 56 1c 9a 3e 4c d6 2a bf 33 6a 15 bf
       -0.3726881 0.30099744 -0.6673324 -0.5836517
000230 5d 01 e6 bf 3b 2a 4d 3f ae 27 20 3f 0d 8d 04 bf
       -1.7969166 0.80142564 0.62560546 -0.51777726
000240 bd 47 fd bf 8d 2c 85 bf 06 00 f4 be 63 86 ee 3e
       -1.9787518 -1.0404221 -0.47656268 0.46586904
000250 93 6c 1a bf f2 0d da 3e 7f f9 04 c0 b4 05 83 bf
       -0.6032192 0.42588764 -2.077728 -1.0236115
000260 ac a1 c5 bf 74 92 c5 be d7 a0 86 3f bd 8b 80 bf
       -1.5439963 -0.38588297 1.0517834 -1.0042645
000270 6d 60 c4 be f5 7b e6 be 8b d3 5c bf d8 a6 45 bf
       -0.38354817 -0.45016447 -0.8626029 -0.7720771
000280 f2 41 05 bf 5b f6 70 3f 5e 9b 48 3e d8 a7 d6 be
       -0.5205375 0.9412591 0.19590518 -0.4192493
000290 3b 71 27 bf 68 11 c1 bf b2 c0 be bf 79 7a 0d c0
       -0.6540715 -1.5083437 -1.4902556 -2.2106001
0002a0 77 12 8a 3e 3e b1 86 bf c2 ba e9 3e 7c 1e a0 3f
       0.26967213 -1.052284 0.45650297 1.2509303
0002b0 f9 84 54 3d 1f e5 41 bf 32 47 11 3e a7 79 d9 bd
       0.051884625 -0.75740236 0.14187315 -0.106189065
0002c0 eb 1f c0 be c4 f2 d8 bd da fd 84 3d 31 b7 f1 3d
       -0.3752435 -0.10593179 0.06493731 0.11802519
0002d0 b6 3d 5e 3f 69 a7 3e 3d 9d 86 da bf 9d e9 72 be
       0.86812913 0.046546374 -1.7072331 -0.23721929
0002e0 6b de 4c 3f eb df 11 be c4 a5 8f be b3 9c 68 bf
       0.8002688 -0.14245574 -0.28056157 -0.90864104
0002f0 34 61 41 3d 5e 3f c7 bd 75 b7 91 bc 0f 62 b8 bd
       0.04721184 -0.09728883 -0.017787674 -0.09003078
000300 6e 6d 9f bf d5 97 aa 3f 5a 35 54 3e ce 22 95 3e
       -1.245527 1.3327585 0.20723477 0.29128116
000310 2d 88 c9 3e 73 93 a9 3f a7 38 2a 3f 97 58 e0 be
       0.39361706 1.3248123 0.66492695 -0.4381759
000320 13 4a 8f 3f 84 08 fe be e9 76 cb bd 92 ee 16 3e
       1.1194481 -0.49615872 -0.0993479 0.14739445
000330 11 7e 2b 3f ca 36 10 bf f8 2a 17 c0 81 da fe 3e
       0.6698924 -0.563336 -2.3619976 0.4977608
000340 b3 a6 5f bf b5 7f e1 3e 10 24 19 bf 91 2c 33 3f
       -0.8736374 0.44042745 -0.5982065 0.6998988
000350 77 91 1a bd 31 69 40 be 68 69 0a 3f 8e c1 f2 be
       -0.037736382 -0.18790127 0.5406709 -0.47413296
000360 59 64 b9 3f dd e8 1e bf 22 06 6e 3f 5c e8 10 3f
       1.4483749 -0.6207407 0.9297811 0.5660455
000370 3e 9e 2e 3f 39 97 4a be 32 de 75 3f e8 8f 37 be
       0.6821021 -0.1978425 0.9604217 -0.1792599
000380 aa 67 b7 bc 4f 60 20 bd 4e b2 e5 bd 58 cf 55 3f
       -0.022388298 -0.039154347 -0.112156495 0.83519506
000390 39 fe 75 3f e6 03 a2 3e aa 23 09 3f 0e f0 5b 3f
       0.9609104 0.316436 0.53570044 0.8591317
0003a0 c0 ba 2a bf 4f d2 21 3d 32 b5 0e 3f 06 2e 13 3e
       -0.6669121 0.039507207 0.5574523 0.14373025
0003b0 ec 2a bc bf 21 e9 36 be 98 61 e2 3e 47 bd 3a 3f
       -1.4700599 -0.17862369 0.44215083 0.72945064
0003c0 21 1f 35 bf 22 0b 12 3f 19 27 f1 3f 01 33 21 3f
       -0.70750624 0.5704824 1.8840057 0.6296845
0003d0 96 66 0b 3f ab f4 a8 be 25 c3 92 bf f7 90 31 bf
       0.5445341 -0.32999167 -1.1465803 -0.69361824
0003e0 cb ed 4c 3f dc bd c4 be 35 07 57 bd 1f c4 00 bf
       0.80050343 -0.384261 -0.052497108 -0.5029926
0003f0 3e 73 52 3f 85 f3 8c 3e 29 5f 6d 3f b5 d1 b9 bf
       0.82207096 0.2752954 0.9272333 -1.4517123

levels.level_0.wavelet.P.operator.1.bias f4 [64]
000000 dc 9f 0b bf cb f5 25 bf d9 42 be bf 38 36 8c bf
       -0.545408 -0.64828175 -1.486415 -1.0954046
000010 d7 02 e8 be 06 2e c1 bf ce 85 59 bf c1 5e 30 bf
       -0.45314667 -1.509217 -0.84969795 -0.68894583
000020 c7 5f 93 bf 13 6b 8d bf d3 c5 69 bf 3b fd a3 bf
       -1.1513604 -1.1048301 -0.9131748 -1.2811655
000030 8b 05 16 bf 7e 9e 8a bf 2e 24 88 bd 33 81 31 bf
       -0.5860221 -1.0829618 -0.06647526 -0.6933777
000040 df 9f 81 bf 9b 87 50 bf 22 e2 68 bf 9e d8 9f bf
       -1.0126914 -0.8145692 -0.9097005 -1.2487981
000050 01 23 35 bf df f5 b5 bf d4 e3 8e bf a9 e1 8b bf
       -0.70756537 -1.4215659 -1.1163278 -1.0928241
000060 b0 de 1d bf bc 90 a6 bf 74 4c 87 bf 80 86 96 bf
       -0.6166792 -1.301292 -1.0570207 -1.1759796
000070 b3 6c 7c bf 6b d7 8e bf 66 fb c6 bf 7d 3b 80 bf
       -0.9860336 -1.115949 -1.5545471 -1.0018154
000080 e6 3d ee be a8 89 5f bf e0 fd e3 bf eb 0a 63 bf
       -0.465316 -0.8731942 -1.7811852 -0.88688534
000090 2c a9 80 bf 91 30 61 bf 0d 0f a5 bf b3 f7 89 bf
       -1.0051627 -0.8796473 -1.2895218 -1.0778717
0000a0 4c f4 b2 bf ac 91 73 bf 34 06 b1 bf b6 56 b3 bf
       -1.3980803 -0.9514415 -1.3830018 -1.4010837
0000b0 98 6c d4 be 39 11 88 bf d8 ed a8 bf 20 24 2d bf
       -0.414891 -1.0630256 -1.3197584 -0.6763325
0000c0 5b 63 d1 bf a1 3b d2 bf de c8 35 bf 63 7b 6a bf
       -1.6358446 -1.6424447 -0.71009624 -0.91594523
0000d0 07 29 f7 bf aa 89 87 be f8 14 25 bf 52 fc 14 bf
       -1.9309396 -0.26472217 -0.6448512 -0.5819751
0000e0 0a be e9 bf 6f 53 a9 bf 54 e1 b7 be 0f 5b 82 bf
       -1.826112 -1.3228587 -0.359141 -1.0184039
0000f0 a7 1a 8d bf 8e 7a e9 be e3 c3 00 bf 42 4b 58 bf
       -1.1023759 -0.45601314 -0.502989 -0.84489834

levels.level_0.wavelet.P.operator.4.weight f4 [64, 64, 3]
000000 4e f1 83 bd 67 79 df 3e 39 b8 36 3f 60 c7 86 bf
       -0.064425096 0.4364731 0.7137485 -1.0529594
000010 7c b9 33 be 1f 9e 0b 3f 37 0e 5f bd 02 42 3d 3f
       -0.17551225 0.5453815 -0.054456916 0.73928845
000020 40 fd b0 3e 42 f8 9b 3d 2e a8 7e 3e 66 db 0f be
       0.34568214 0.07615711 0.24868843 -0.14048538
000030 8f 5b a2 3e da 7d 2b bf 91 5a 98 3e c7 0d 07 be
       0.3171048 -0.6698891 0.29756597 -0.1318885
000040 c0 b6 1a bf c6 7e 5c bf 49 22 02 3f da 6f bc bd
       -0.60435104 -0.8613094 0.50833565 -0.092010215
000050 b7 61 8e bf 2f 72 5f 3f 7e e2 54 3f 56 f1 9f bd
       -1.112357 0.87283605 0.831581 -0.07809703
000060 4d 8b d4 3e 69 2a 54 bf 4b e0 9b bc e5 7e 17 bf
       0.41512528 -0.8287721 -0.01902785 -0.59178
000070 a9 39 8b be fd 92 d6 bd ce 85 b7 3e 50 ce 0f 3e
       -0.2719243 -0.104772545 0.35844272 0.14043546
000080 0a ac e0 3e b4 0b ad be 38 67 a6 3e 99 ef 12 bd
       0.43881255 -0.3379799 0.32500625 -0.03587303
000090 f7 ad d6 be de 96 3f bf b4 24 dd bf c8 85 15 3e
       -0.419296 -0.7483958 -1.7276826 0.14601815
0000a0 28 23 34 bf 97 cd e0 3e f1 28 e0 b9 ea f3 8c 3f
       -0.70366144 0.43906853 -0.00042755113 1.1011937
0000b0 10 5f 48 40 ac d6 2d bf 25 a4 e4 3d 3f b5 6c bf
       3.1308022 -0.6790569 0.111641206 -0.9246406
0000c0 15 74 0b 3d 01 6d 1c be 07 1c 12 3e 61 1c c8 be
       0.03404625 -0.15275957 0.14268504 -0.3908415
0000d0 dd bb 0a 3f 50 a6 66 be c1 f4 98 3e e5 4c 86 3d
       0.54192907 -0.2252438 0.29874232 0.06557635
0000e0 f5 8b c3 3e d5 06 4f 3f ec 2c 9a 3d 2d c3 8a 3f
       0.38192716 0.808698 0.075280994 1.0840813
0000f0 47 8d 36 bf 30 7f 66 bf 1f 8d af bf c9 d7 e6 3c
       -0.7130932 -0.9003782 -1.3714942 0.028179066
000100 6c 0a e5 bc fe 61 c3 3e 77 f4 22 3e ba 92 54 bf
       -0.027959071 0.381607 0.15913568 -0.83036387
000110 03 e9 cb bf 2d 4f 04 3f a4 25 b8 be 35 d2 38 bf
       -1.5930485 0.5168331 -0.35966218 -0.7219575
000120 2d a9 3d 3f d9 0c ed 3d a5 33 e6 3c 8e 3e 98 3f
       0.74086267 0.11574716 0.028100798 1.189409
000130 bf 10 ed 3e 00 15 81 bf 38 3e 6a 3f 85 b5 34 3f
       0.4630184 -1.0084534 0.9150119 0.70589477
000140 95 4d b0 3f 57 3f 11 3e 06 32 c9 3e 41 ab 03 3e
       1.3773676 0.14184318 0.39295977 0.12858297
000150 18 38 21 bd 24 56 32 3e 2e 0a d8 3c 0a c0 40 bd
       -0.039360136 0.17415673 0.026372042 -0.047058143
000160 04 f8 ff be d4 aa 11 3f 56 42 88 3f 3e b8 a5 3f
       -0.49993908 0.5690129 1.0645244 1.2946851
000170 44 73 a4 3f 6c 97 a9 be 7f 27 0a bf 15 90 cf 3f
       1.2847676 -0.33123338 -0.53966516 1.6215845
000180 de ab d1 bf 43 64 14 3d 5d 85 05 3d 4b 21 7b 3e
       -1.6380575 0.03622843 0.03259789 0.24524419
000190 4e 03 a4 3e d2 33 bb 3f 1d 3f 8b 3e b5 dc d9 be
       0.3203377 1.4625189 0.2719659 -0.425512
0001a0 e5 b9 86 be 5e 80 9d 3f 01 50 9c 3f fe a4 99 3f
       -0.263137 1.23048 1.2211915 1.2003477
0001b0 4f d8 63 3e 77 88 5c 3f b2 00 6e 3c 90 a2 be 3d
       0.22250484 0.8614573 0.014526533 0.0930835
0001c0 21 cf 6a bf 6b 22 a4 be 43 41 87 bf d1 18 89 bf
       -0.91722304 -0.3205751 -1.0566791 -1.0710698
0001d0 13 26 8e 3c 6c 02 36 bf 04 3d 44 3e a9 15 21 bf
       0.01735214 -0.71097445 0.191639 -0.62923676
0001e0 85 91 8c bd 65 55 62 3f 02 30 73 be 73 7d 87 3e
       -0.06863693 0.8841155 -0.23748782 0.26462898
0001f0 9a 7e 5d 3f 32 9f 8c 3e 48 f1 0d bf 5d d1 6b 3f
       0.86521304 0.27465206 -0.5544629 0.9211634
000200 bc 8f dc 3f ad f0 db 3e 77 02 c0 3e f9 f3 29 bf
       1.7231364 0.4295706 0.3750188 -0.663879
000210 21 a0 cf be 27 c4 a9 3e fd da 89 3f bf 48 13 3f
       -0.40551856 0.33157465 1.0769955 0.57532877
000220 35 26 81 be 5d 57 c9 3e 87 ce 44 bf eb 76 0f bf
       -0.25224462 0.39324465 -0.76877636 -0.5604083
000230 43 01 91 3c cc 84 2d bf 52 d1 0d be d5 60 a5 3d
       0.017700797 -0.67780757 -0.1384938 0.0807511
000240 71 22 ed be 1c 90 1a bf ae 7a 5e bf 6d 66 14 3d
       -0.4631534 -0.60376143 -0.86905944 0.036230493
000250 87 dd 00 be ae a5 1a 3f 9b 23 0a bf d1 bc 4e be
       -0.12584506 0.6040906 -0.5396058 -0.20189215
000260 6e f4 af be 04 d0 97 3e 42 ae a0 bd 07 c6 b3 3f
       -0.34366173 0.2965089 -0.07845737 1.4044808
000270 13 8a e5 3e fd cf d1 bd 41 60 9a be 8f 9a 10 bf
       0.44831905 -0.10244749 -0.3015156 -0.5648584
000280 4c a9 5c bf 89 92 59 bf 6a c6 aa bd 34 c4 be bc
       -0.86195827 -0.8498922 -0.08338626 -0.023286916
000290 44 1c 1f bf 7a 16 3e be 7b c6 e2 3e 79 6d e2 be
       -0.62152505 -0.18563262 0.44292054 -0.44224146
0002a0 87 66 2a 3f 8c a3 24 3f 77 b4 07 40 36 3b dd 3d
       0.66562694 0.6431205 2.1203897 0.10802309
0002b0 df 7c 93 3e 52 4e 02 3f c1 0a 3e 3e a2 74 1f be
       0.28806207 0.5090076 0.1855879 -0.15571836
0002c0 f3 57 98 bf 30 bc ae be c8 76 84 bb d3 0a b4 3d
       -1.190184 -0.3412795 -0.00404248 0.08791127
0002d0 5c 1d 80 bf 57 c9 76 bf f5 2a 4d bf 87 60 94 be
       -1.000896 -0.9640097 -0.8014367 -0.28979895
0002e0 1b ab 1f 3f dc 12 29 3f f5 78 73 bf 0c 3e b4 3e
       0.6237046 0.660444 -0.9510644 0.35203588
0002f0 a0 b6 2f 3f d8 c3 b5 bf 28 45 bf 3c 74 3b 2c bf
       0.6863804 -1.4200392 0.023348406 -0.6727822
000300 f8 85 2e 3e ed 9a 03 bd 0d 8c d3 3f 41 9a b9 be
       0.17043293 -0.03213017 1.6527115 -0.362505
000310 ba fa d0 be ce 11 4c bf a8 87 bd 3e fa bc e4 3d
       -0.4081629 -0.7971467 0.3701756 0.11168857
000320 3e 0e 60 3e 9c e2 17 3c ec b6 46 3f 19 31 27 be
       0.21880433 0.0092703365 0.77622867 -0.16327323
000330 2e 9e 40 3f 10 e2 e5 3e 07 41 29 bd ce b5 e7 3e
       0.75241363 0.44899035 -0.04132178 0.45255893
000340 8a 44 50 bf a9 7c 52 bf f1 15 4d be d2 6e 49 3e
       -0.8135458 -0.82221466 -0.20027901 0.19671181
000350 68 93 e0 be 4d 6f d7 3d 27 cb 68 3e ee 87 eb be
       -0.43862462 0.10519276 0.22733746 -0.46002144
000360 d8 c8 bd 3d 72 15 fa 3e 21 c6 8a 3f dc b8 8f bf
       0.092668235 0.48844486 1.0841714 -1.122829
000370 43 a8 99 be 9e 1d bd 3f c4 7a 9a be 91 3b 7a bf
       -0.30011186 1.4774663 -0.30171788 -0.9774714
000380 87 36 90 bf 0b a8 73 3f 38 9c 58 bf 0a 28 3d bf
       -1.126664 0.9517829 -0.8461337 -0.7388922
000390 87 c7 31 bf 20 ed 9d bc 0c ef 33 bf 52 90 d9 3c
       -0.6944508 -0.01927811 -0.7028663 0.026558075
0003a0 aa ee d0 3f 49 e1 bc bf b6 4b d5 3e da 1f 5e bb
       1.6322834 -1.4756252 0.41659325 -0.0033893497
0003b0 c9 8e ea 3e 1c be c2 bd ba 1f 3c be db f3 9d bd
       0.4581206 -0.09508917 -0.18371478 -0.07712527
0003c0 27 d6 df 3f 60 6e 2a 3f 3e 3e 0b c0 99 d9 bd bf
       1.7487229 0.6657467 -2.175674 -1.483203
0003d0 55 bb 05 bf 3b f8 ca bf ee d1 3b bf 45 f4 51 bd
       -0.5223897 -1.5857004 -0.733672 -0.051258344
0003e0 c7 8f 7e 3d fe b0 f6 3e 13 d0 11 bf d2 ab b9 be
       0.062148836 0.4818191 -0.5695812 -0.362639
0003f0 90 a0 82 bf 47 90 e0 bd ee 6d 52 bd fe 46 f4 be
       -1.020525 -0.10965019 -0.05137437 -0.47710413

levels.level_0.wavelet.P.operator.4.bias f4 [64]
000000 a9 d8 f4 be 15 c8 32 bf 1e 19 cb be 90 66 0a 3e
       -0.4782155 -0.6983655 -0.396676 0.13515687
000010 27 69 14 bf 76 68 f7 be dd da 6c bf 9e 51 ab 3e
       -0.5797295 -0.48321885 -0.9252146 0.33460706
000020 1a 69 3b 3e 27 13 b4 bf 57 f7 97 3e 28 ad 5b 3f
       0.18301812 -1.4068345 0.29680893 0.8581109
000030 ad ff 13 3f 08 61 2a 3f c4 44 d1 be 71 2d 07 ba
       0.57812005 0.6655431 -0.40872777 -0.00051566126
000040 6b c9 68 bd d9 90 88 bf a6 14 40 3f 40 ff 8f 3f
       -0.056832712 -1.0669204 0.75031507 1.1249771
000050 65 17 30 3f 9f ff 35 be cd b9 bc be a1 21 bb 3e
       0.687857 -0.17773293 -0.36860505 0.36549094
000060 ca 2a 45 3f 32 d2 fd 3f 5e 58 96 3e 51 65 fb 3d
       0.77018416 1.9829772 0.29364294 0.12275184
000070 11 24 9d 3f 1b 8e 57 bd 31 b2 a2 3f 9b a7 d2 3f
       1.2276632 -0.052625757 1.271063 1.6457399
000080 de 3c 00 c0 c9 d8 9d 3e 33 4d 8b be 81 77 98 be
       -2.003715 0.30829456 -0.27207336 -0.29778674
000090 7c 35 97 bf 9e 11 c2 3f d7 b4 f2 3e ad af 8a be
       -1.1813197 1.5161626 0.47403595 -0.27087155
0000a0 88 31 13 3f e9 82 7d 3f cf a1 c1 3e 54 fb 79 3e
       0.57497454 0.9902788 0.37818763 0.2441228
0000b0 a0 64 56 3e 0c de 89 3f 5c 51 bd 3e 8d d2 c8 be
       0.20936823 1.0770888 0.36976135 -0.39223137
0000c0 09 4b f1 be 00 84 6a 3f 92 bb 7b bc 46 28 ee 3f
       -0.4712756 0.91607666 -0.0153645445 1.860604
0000d0 c5 46 81 bc 0f 12 85 bd d5 80 28 be 4b 36 5c 3e
       -0.015780816 -0.06497585 -0.16455396 0.21505086
0000e0 6d 16 c4 3f 5a d1 e2 3f da bf 7c 3f ac a2 5a 3d
       1.5319344 1.7720139 0.9873024 0.053377792
0000f0 ec 96 7e bf 37 29 c1 3f f8 54 a3 be e2 91 cb be
       -0.9944904 1.5090703 -0.31900764 -0.39759737
